MAE/step,RMSE/step,Model,Model Arch,Coin,Input Width,Label Width,Batch Size,Learning Rate,Num Epochs,Windows Normalization Length,Train Loss,Validation Loss,Features
97.7761996780216,206.4791458467255,ConvFC,"ConvFC(;   (conv): Conv1d(1, 16, kernel_size=(3,), stride=(1,));   (fc): Sequential(;     (0): Linear(in_features=1568, out_features=128, bias=True);     (1): ReLU();     (2): Linear(in_features=128, out_features=6, bias=True);   ); )",BTCUSDT,100,6,32,0.001,50,30,0.001652706044435275,0.0018696675297925373,close
147.26999346277,244.60369306767905,SimpleFC,"SimpleFC(;   (fc): Sequential(;     (0): Flatten(start_dim=1, end_dim=-1);     (1): Linear(in_features=100, out_features=128, bias=True);     (2): ReLU();     (3): Linear(in_features=128, out_features=6, bias=True);   ); )",BTCUSDT,100,6,32,0.001,50,30,0.0017244062160369487,0.0024028920326978056,close
111.9293160322784,210.30130271899847,GRUStacked,"GRUStacked(;   (gru): GRU(1, 64, num_layers=2, batch_first=True);   (fc): Linear(in_features=64, out_features=6, bias=True); )",BTCUSDT,100,6,32,0.001,50,30,0.0016126461768903244,0.0019238309255013228,close
97.14427914729579,204.59540057001243,TransformerTimeSeries,"TransformerTimeSeries(;   (input_projection): Linear(in_features=1, out_features=64, bias=True);   (transformer_encoder): TransformerEncoder(;     (layers): ModuleList(;       (0-1): 2 x TransformerEncoderLayer(;         (self_attn): MultiheadAttention(;           (out_proj): NonDynamicallyQuantizab",BTCUSDT,100,6,32,0.001,50,30,0.0016919561836822054,0.0018544724297002272,close
102.83177239084125,213.2923990217629,ConvFC,"ConvFC(;   (conv): Conv1d(1, 16, kernel_size=(3,), stride=(1,));   (fc): Sequential(;     (0): Linear(in_features=1568, out_features=128, bias=True);     (1): ReLU();     (2): Linear(in_features=128, out_features=6, bias=True);   ); )",BTCUSDT,100,6,32,0.001,50,15,0.0011422196304635911,0.0012698822687043393,close
104.56061717836371,209.14597797627653,SimpleFC,"SimpleFC(;   (fc): Sequential(;     (0): Flatten(start_dim=1, end_dim=-1);     (1): Linear(in_features=100, out_features=128, bias=True);     (2): ReLU();     (3): Linear(in_features=128, out_features=6, bias=True);   ); )",BTCUSDT,100,6,32,0.001,50,15,0.0011603816647974606,0.001290316720554852,close
93.6859201420974,198.76775604716195,GRUStacked,"GRUStacked(;   (gru): GRU(1, 64, num_layers=2, batch_first=True);   (fc): Linear(in_features=64, out_features=6, bias=True); )",BTCUSDT,100,6,32,0.001,50,15,0.0010697794090963636,0.0011857752861975446,close
112.67902043612315,213.08884055468442,TransformerTimeSeries,"TransformerTimeSeries(;   (input_projection): Linear(in_features=1, out_features=64, bias=True);   (transformer_encoder): TransformerEncoder(;     (layers): ModuleList(;       (0-1): 2 x TransformerEncoderLayer(;         (self_attn): MultiheadAttention(;           (out_proj): NonDynamicallyQuantizab",BTCUSDT,100,6,32,0.001,50,15,0.0011443093457440968,0.0013054038500357194,close
104.96070823455636,210.47299773258808,ConvFC,"ConvFC(;   (conv): Conv1d(1, 16, kernel_size=(3,), stride=(1,));   (fc): Sequential(;     (0): Linear(in_features=1568, out_features=128, bias=True);     (1): ReLU();     (2): Linear(in_features=128, out_features=6, bias=True);   ); )",BTCUSDT,100,6,32,0.001,50,15,0.001135923093266591,0.0012892448132596798,close
103.67038208256407,211.68118047432927,SimpleFC,"SimpleFC(;   (fc): Sequential(;     (0): Flatten(start_dim=1, end_dim=-1);     (1): Linear(in_features=100, out_features=128, bias=True);     (2): ReLU();     (3): Linear(in_features=128, out_features=6, bias=True);   ); )",BTCUSDT,100,6,32,0.001,50,15,0.001160064118911751,0.0012740175735909513,close
98.0019224587731,198.8302274694789,GRUStacked,"GRUStacked(;   (gru): GRU(1, 64, num_layers=2, batch_first=True);   (fc): Linear(in_features=64, out_features=6, bias=True); )",BTCUSDT,100,6,32,0.001,50,15,0.0010960285782660561,0.0012017294414571474,close
105.42202659584547,211.307035038791,TransformerTimeSeries,"TransformerTimeSeries(;   (input_projection): Linear(in_features=1, out_features=64, bias=True);   (transformer_encoder): TransformerEncoder(;     (layers): ModuleList(;       (0-1): 2 x TransformerEncoderLayer(;         (self_attn): MultiheadAttention(;           (out_proj): NonDynamicallyQuantizab",BTCUSDT,100,6,32,0.001,50,15,0.0011629803743937936,0.0012956610770688494,close
96.8072990075447,206.61201224899284,ConvFC,"ConvFC(;   (conv): Conv1d(1, 16, kernel_size=(3,), stride=(1,));   (fc): Sequential(;     (0): Linear(in_features=1568, out_features=128, bias=True);     (1): ReLU();     (2): Linear(in_features=128, out_features=6, bias=True);   ); )",BTCUSDT,100,6,32,0.0005,50,30,0.0015848185492394267,0.001885038253751129,close
99.82647177218995,207.9953817981125,SimpleFC,"SimpleFC(;   (fc): Sequential(;     (0): Flatten(start_dim=1, end_dim=-1);     (1): Linear(in_features=100, out_features=128, bias=True);     (2): ReLU();     (3): Linear(in_features=128, out_features=6, bias=True);   ); )",BTCUSDT,100,6,32,0.0005,50,30,0.0016439334888514886,0.0018745928935696493,close
97.79003790655088,202.05371558229766,GRUStacked,"GRUStacked(;   (gru): GRU(1, 64, num_layers=2, batch_first=True);   (fc): Linear(in_features=64, out_features=6, bias=True); )",BTCUSDT,100,6,32,0.0005,50,30,0.00156743122049638,0.0018019659296288335,close
93.3489923034228,203.1233493364975,TransformerTimeSeries,"TransformerTimeSeries(;   (input_projection): Linear(in_features=1, out_features=64, bias=True);   (transformer_encoder): TransformerEncoder(;     (layers): ModuleList(;       (0-1): 2 x TransformerEncoderLayer(;         (self_attn): MultiheadAttention(;           (out_proj): NonDynamicallyQuantizab",BTCUSDT,100,6,32,0.0005,50,30,0.0016060409282673653,0.0018313609010268312,close
97.25609320038451,206.07372266987386,ConvFC,"ConvFC(;   (conv): Conv1d(1, 16, kernel_size=(3,), stride=(1,));   (fc): Sequential(;     (0): Linear(in_features=1568, out_features=128, bias=True);     (1): ReLU();     (2): Linear(in_features=128, out_features=6, bias=True);   ); )",BTCUSDT,100,6,32,0.0005,50,30,0.0015745219183165582,0.001887270249338491,close
101.4531959093476,210.14837634700663,SimpleFC,"SimpleFC(;   (fc): Sequential(;     (0): Flatten(start_dim=1, end_dim=-1);     (1): Linear(in_features=100, out_features=128, bias=True);     (2): ReLU();     (3): Linear(in_features=128, out_features=6, bias=True);   ); )",BTCUSDT,100,6,32,0.0005,50,30,0.001646010893780613,0.0018960158666469279,close
93.42924709370597,201.35411783205947,GRUStacked,"GRUStacked(;   (gru): GRU(1, 64, num_layers=2, batch_first=True);   (fc): Linear(in_features=64, out_features=6, bias=True); )",BTCUSDT,100,6,32,0.0005,50,30,0.001569262360200201,0.0017943506378893896,close
94.7623882938264,204.3492467959201,TransformerTimeSeries,"TransformerTimeSeries(;   (input_projection): Linear(in_features=1, out_features=64, bias=True);   (transformer_encoder): TransformerEncoder(;     (layers): ModuleList(;       (0-1): 2 x TransformerEncoderLayer(;         (self_attn): MultiheadAttention(;           (out_proj): NonDynamicallyQuantizab",BTCUSDT,100,6,32,0.0005,50,30,0.001606928658454017,0.0018333445356850588,close
99.1923404526943,205.6489637788354,ConvFC,"ConvFC(;   (conv): Conv1d(1, 16, kernel_size=(3,), stride=(1,));   (fc): Sequential(;     (0): Linear(in_features=1568, out_features=128, bias=True);     (1): ReLU();     (2): Linear(in_features=128, out_features=6, bias=True);   ); )",BTCUSDT,100,6,32,0.0005,50,30,0.0016739738001874604,0.0018766027572466363,close
97.620489805067,205.36576650606654,SimpleFC,"SimpleFC(;   (fc): Sequential(;     (0): Flatten(start_dim=1, end_dim=-1);     (1): Linear(in_features=100, out_features=128, bias=True);     (2): ReLU();     (3): Linear(in_features=128, out_features=6, bias=True);   ); )",BTCUSDT,100,6,32,0.0005,50,30,0.0016784040908358253,0.0018576040142300146,close
96.12052902980274,204.12712351951726,GRUStacked,"GRUStacked(;   (gru): GRU(1, 64, num_layers=2, batch_first=True);   (fc): Linear(in_features=64, out_features=6, bias=True); )",BTCUSDT,100,6,32,0.0005,50,30,0.0016120862019755647,0.001816445003189276,close
101.8066124453149,212.90494906295143,TransformerTimeSeries,"TransformerTimeSeries(;   (input_projection): Linear(in_features=1, out_features=64, bias=True);   (transformer_encoder): TransformerEncoder(;     (layers): ModuleList(;       (0-1): 2 x TransformerEncoderLayer(;         (self_attn): MultiheadAttention(;           (out_proj): NonDynamicallyQuantizab",BTCUSDT,100,6,32,0.0005,50,30,0.001747404683486077,0.001955313620915083,close
101.15069975727397,212.96076862982727,ConvFC,"ConvFC(;   (conv): Conv1d(1, 16, kernel_size=(3,), stride=(1,));   (fc): Sequential(;     (0): Linear(in_features=1568, out_features=128, bias=True);     (1): ReLU();     (2): Linear(in_features=128, out_features=6, bias=True);   ); )",BTCUSDT,100,6,32,0.0005,50,15,0.0010866801537125722,0.0012659620505572487,close
102.9426367431545,209.26909676053378,SimpleFC,"SimpleFC(;   (fc): Sequential(;     (0): Flatten(start_dim=1, end_dim=-1);     (1): Linear(in_features=100, out_features=128, bias=True);     (2): ReLU();     (3): Linear(in_features=128, out_features=6, bias=True);   ); )",BTCUSDT,100,6,32,0.0005,50,15,0.0011228137601069393,0.0012602510197222772,close
93.49474366454638,196.602903020993,GRUStacked,"GRUStacked(;   (gru): GRU(1, 64, num_layers=2, batch_first=True);   (fc): Linear(in_features=64, out_features=6, bias=True); )",BTCUSDT,100,6,32,0.0005,50,15,0.0010448097600501806,0.001184183256651544,close
109.24025083101122,211.43422460332724,TransformerTimeSeries,"TransformerTimeSeries(;   (input_projection): Linear(in_features=1, out_features=64, bias=True);   (transformer_encoder): TransformerEncoder(;     (layers): ModuleList(;       (0-1): 2 x TransformerEncoderLayer(;         (self_attn): MultiheadAttention(;           (out_proj): NonDynamicallyQuantizab",BTCUSDT,100,6,32,0.0005,50,15,0.0010942760288353021,0.0012978386411973534,close
105.01211368555401,211.8574668192106,ConvFC,"ConvFC(;   (conv): Conv1d(1, 16, kernel_size=(3,), stride=(1,));   (fc): Sequential(;     (0): Linear(in_features=1568, out_features=128, bias=True);     (1): ReLU();     (2): Linear(in_features=128, out_features=6, bias=True);   ); )",BTCUSDT,100,6,32,0.0005,50,15,0.0011077095487439911,0.0012839747417131887,close
103.50746352786352,212.66917883522876,SimpleFC,"SimpleFC(;   (fc): Sequential(;     (0): Flatten(start_dim=1, end_dim=-1);     (1): Linear(in_features=100, out_features=128, bias=True);     (2): ReLU();     (3): Linear(in_features=128, out_features=6, bias=True);   ); )",BTCUSDT,100,6,32,0.0005,50,15,0.0011163929877002674,0.0012628817546156135,close
97.69836251528214,196.54196370125553,GRUStacked,"GRUStacked(;   (gru): GRU(1, 64, num_layers=2, batch_first=True);   (fc): Linear(in_features=64, out_features=6, bias=True); )",BTCUSDT,100,6,32,0.0005,50,15,0.0010647472138363302,0.00118126632114143,close
97.67223484934789,203.75165459363015,TransformerTimeSeries,"TransformerTimeSeries(;   (input_projection): Linear(in_features=1, out_features=64, bias=True);   (transformer_encoder): TransformerEncoder(;     (layers): ModuleList(;       (0-1): 2 x TransformerEncoderLayer(;         (self_attn): MultiheadAttention(;           (out_proj): NonDynamicallyQuantizab",BTCUSDT,100,6,32,0.0005,50,15,0.001094906255965337,0.0012282057785210256,close
108.14650900475958,210.1142877888228,ConvFC,"ConvFC(;   (conv): Conv1d(1, 16, kernel_size=(3,), stride=(1,));   (fc): Sequential(;     (0): Linear(in_features=1568, out_features=128, bias=True);     (1): ReLU();     (2): Linear(in_features=128, out_features=6, bias=True);   ); )",BTCUSDT,100,6,32,0.0005,50,15,0.0011576586600770887,0.0012781163127054966,close
102.69192804222645,210.9366729644909,SimpleFC,"SimpleFC(;   (fc): Sequential(;     (0): Flatten(start_dim=1, end_dim=-1);     (1): Linear(in_features=100, out_features=128, bias=True);     (2): ReLU();     (3): Linear(in_features=128, out_features=6, bias=True);   ); )",BTCUSDT,100,6,32,0.0005,50,15,0.0011380599314313054,0.001280403655816251,close
95.84403277978502,199.40077128163307,GRUStacked,"GRUStacked(;   (gru): GRU(1, 64, num_layers=2, batch_first=True);   (fc): Linear(in_features=64, out_features=6, bias=True); )",BTCUSDT,100,6,32,0.0005,50,15,0.001075664674046795,0.0011862397626784338,close
105.75953193141042,212.72410208247018,TransformerTimeSeries,"TransformerTimeSeries(;   (input_projection): Linear(in_features=1, out_features=64, bias=True);   (transformer_encoder): TransformerEncoder(;     (layers): ModuleList(;       (0-1): 2 x TransformerEncoderLayer(;         (self_attn): MultiheadAttention(;           (out_proj): NonDynamicallyQuantizab",BTCUSDT,100,6,32,0.0005,50,15,0.0011912570887205156,0.0012727935170103986,close
103.86869865222256,220.19841694979235,ConvFC,"ConvFC(;   (conv): Conv1d(1, 16, kernel_size=(3,), stride=(1,));   (fc): Sequential(;     (0): Linear(in_features=1568, out_features=128, bias=True);     (1): ReLU();     (2): Linear(in_features=128, out_features=6, bias=True);   ); )",BTCUSDT,100,6,32,0.0005,50,15,0.0011302466431296647,0.0012871188502576404,close
107.79926947635204,210.77728203389003,SimpleFC,"SimpleFC(;   (fc): Sequential(;     (0): Flatten(start_dim=1, end_dim=-1);     (1): Linear(in_features=100, out_features=128, bias=True);     (2): ReLU();     (3): Linear(in_features=128, out_features=6, bias=True);   ); )",BTCUSDT,100,6,32,0.0005,50,15,0.001157798507605441,0.0012970882931833594,close
96.50798377755048,197.76455312853932,GRUStacked,"GRUStacked(;   (gru): GRU(1, 64, num_layers=2, batch_first=True);   (fc): Linear(in_features=64, out_features=6, bias=True); )",BTCUSDT,100,6,32,0.0005,50,15,0.001073412139901945,0.0011821538165733443,close
105.08776349053424,207.93854996034642,TransformerTimeSeries,"TransformerTimeSeries(;   (input_projection): Linear(in_features=1, out_features=64, bias=True);   (transformer_encoder): TransformerEncoder(;     (layers): ModuleList(;       (0-1): 2 x TransformerEncoderLayer(;         (self_attn): MultiheadAttention(;           (out_proj): NonDynamicallyQuantizab",BTCUSDT,100,6,32,0.0005,50,15,0.0012067834298453448,0.001281077357490143,close
96.8118896218544,209.12543191251348,ConvFC,"ConvFC(;   (conv): Conv1d(1, 16, kernel_size=(3,), stride=(1,));   (fc): Sequential(;     (0): Linear(in_features=1568, out_features=128, bias=True);     (1): ReLU();     (2): Linear(in_features=128, out_features=6, bias=True);   ); )",BTCUSDT,100,6,64,0.001,50,30,0.0015838602989345447,0.001889854070692827,close
94.79168372242543,205.22982155968876,SimpleFC,"SimpleFC(;   (fc): Sequential(;     (0): Flatten(start_dim=1, end_dim=-1);     (1): Linear(in_features=100, out_features=128, bias=True);     (2): ReLU();     (3): Linear(in_features=128, out_features=6, bias=True);   ); )",BTCUSDT,100,6,64,0.001,50,30,0.0016414023164004364,0.001850388276166899,close
96.37400925720794,203.29471908496942,GRUStacked,"GRUStacked(;   (gru): GRU(1, 64, num_layers=2, batch_first=True);   (fc): Linear(in_features=64, out_features=6, bias=True); )",BTCUSDT,100,6,64,0.001,50,30,0.001554424387983472,0.0018152153308690045,close
96.2450442101092,204.19238176222095,TransformerTimeSeries,"TransformerTimeSeries(;   (input_projection): Linear(in_features=1, out_features=64, bias=True);   (transformer_encoder): TransformerEncoder(;     (layers): ModuleList(;       (0-1): 2 x TransformerEncoderLayer(;         (self_attn): MultiheadAttention(;           (out_proj): NonDynamicallyQuantizab",BTCUSDT,100,6,64,0.001,50,30,0.001618096153015483,0.001841934729698744,close
97.54026611849825,208.38177282594302,ConvFC,"ConvFC(;   (conv): Conv1d(1, 16, kernel_size=(3,), stride=(1,));   (fc): Sequential(;     (0): Linear(in_features=1568, out_features=128, bias=True);     (1): ReLU();     (2): Linear(in_features=128, out_features=6, bias=True);   ); )",BTCUSDT,100,6,64,0.001,50,30,0.0015631459129748122,0.0018736176884644282,close
99.20249202902488,211.4179971893849,SimpleFC,"SimpleFC(;   (fc): Sequential(;     (0): Flatten(start_dim=1, end_dim=-1);     (1): Linear(in_features=100, out_features=128, bias=True);     (2): ReLU();     (3): Linear(in_features=128, out_features=6, bias=True);   ); )",BTCUSDT,100,6,64,0.001,50,30,0.0016334206863135273,0.0018657987833569716,close
93.35576117410828,201.22891981225533,GRUStacked,"GRUStacked(;   (gru): GRU(1, 64, num_layers=2, batch_first=True);   (fc): Linear(in_features=64, out_features=6, bias=True); )",BTCUSDT,100,6,64,0.001,50,30,0.0015574241618674365,0.00179016744888923,close
93.20838501289872,202.39141481343776,TransformerTimeSeries,"TransformerTimeSeries(;   (input_projection): Linear(in_features=1, out_features=64, bias=True);   (transformer_encoder): TransformerEncoder(;     (layers): ModuleList(;       (0-1): 2 x TransformerEncoderLayer(;         (self_attn): MultiheadAttention(;           (out_proj): NonDynamicallyQuantizab",BTCUSDT,100,6,64,0.001,50,30,0.0016059246496217573,0.0018334391735385033,close
103.50031001913446,209.50392882442566,ConvFC,"ConvFC(;   (conv): Conv1d(1, 16, kernel_size=(3,), stride=(1,));   (fc): Sequential(;     (0): Linear(in_features=1568, out_features=128, bias=True);     (1): ReLU();     (2): Linear(in_features=128, out_features=6, bias=True);   ); )",BTCUSDT,100,6,64,0.001,50,30,0.0016441086977634026,0.001894844960109758,close
107.37999877289353,214.08346413484617,SimpleFC,"SimpleFC(;   (fc): Sequential(;     (0): Flatten(start_dim=1, end_dim=-1);     (1): Linear(in_features=100, out_features=128, bias=True);     (2): ReLU();     (3): Linear(in_features=128, out_features=6, bias=True);   ); )",BTCUSDT,100,6,64,0.001,50,30,0.0016564675392001735,0.0019571256825524934,close
91.69096680969106,199.79766195460925,GRUStacked,"GRUStacked(;   (gru): GRU(1, 64, num_layers=2, batch_first=True);   (fc): Linear(in_features=64, out_features=6, bias=True); )",BTCUSDT,100,6,64,0.001,50,30,0.0015839979423667382,0.0017811253485224853,close
94.76866768420889,204.15941178262037,TransformerTimeSeries,"TransformerTimeSeries(;   (input_projection): Linear(in_features=1, out_features=64, bias=True);   (transformer_encoder): TransformerEncoder(;     (layers): ModuleList(;       (0-1): 2 x TransformerEncoderLayer(;         (self_attn): MultiheadAttention(;           (out_proj): NonDynamicallyQuantizab",BTCUSDT,100,6,64,0.001,50,30,0.0017018839162780772,0.0018426341617396686,close
103.42445309335766,208.57061191702587,ConvFC,"ConvFC(;   (conv): Conv1d(1, 16, kernel_size=(3,), stride=(1,));   (fc): Sequential(;     (0): Linear(in_features=1568, out_features=128, bias=True);     (1): ReLU();     (2): Linear(in_features=128, out_features=6, bias=True);   ); )",BTCUSDT,100,6,64,0.001,50,30,0.0016332229195575936,0.0018968679860643682,close
119.29756821037887,222.83656376387898,SimpleFC,"SimpleFC(;   (fc): Sequential(;     (0): Flatten(start_dim=1, end_dim=-1);     (1): Linear(in_features=100, out_features=128, bias=True);     (2): ReLU();     (3): Linear(in_features=128, out_features=6, bias=True);   ); )",BTCUSDT,100,6,64,0.001,50,30,0.0016765826902657604,0.0020788855865318777,close
94.26603944463339,201.43747965156987,GRUStacked,"GRUStacked(;   (gru): GRU(1, 64, num_layers=2, batch_first=True);   (fc): Linear(in_features=64, out_features=6, bias=True); )",BTCUSDT,100,6,64,0.001,50,30,0.0015746046717049341,0.0018140309019821835,close
97.97811529657065,209.51132269877203,TransformerTimeSeries,"TransformerTimeSeries(;   (input_projection): Linear(in_features=1, out_features=64, bias=True);   (transformer_encoder): TransformerEncoder(;     (layers): ModuleList(;       (0-1): 2 x TransformerEncoderLayer(;         (self_attn): MultiheadAttention(;           (out_proj): NonDynamicallyQuantizab",BTCUSDT,100,6,64,0.001,50,30,0.001693305391779959,0.001875091883312272,close
97.22519963469118,206.0121252102564,ConvFC,"ConvFC(;   (conv): Conv1d(1, 16, kernel_size=(3,), stride=(1,));   (fc): Sequential(;     (0): Linear(in_features=1568, out_features=128, bias=True);     (1): ReLU();     (2): Linear(in_features=128, out_features=6, bias=True);   ); )",BTCUSDT,100,6,64,0.001,50,30,0.0016481103385934052,0.0018764497267401772,close
108.51043647616052,211.86677550680747,SimpleFC,"SimpleFC(;   (fc): Sequential(;     (0): Flatten(start_dim=1, end_dim=-1);     (1): Linear(in_features=100, out_features=128, bias=True);     (2): ReLU();     (3): Linear(in_features=128, out_features=6, bias=True);   ); )",BTCUSDT,100,6,64,0.001,50,30,0.0017172357669344173,0.0019490887664859115,close
99.77507684853468,203.83714249522367,GRUStacked,"GRUStacked(;   (gru): GRU(1, 64, num_layers=2, batch_first=True);   (fc): Linear(in_features=64, out_features=6, bias=True); )",BTCUSDT,100,6,64,0.001,50,30,0.001613935570099068,0.0018196398710634038,close
97.60625325103062,207.28944439828615,TransformerTimeSeries,"TransformerTimeSeries(;   (input_projection): Linear(in_features=1, out_features=64, bias=True);   (transformer_encoder): TransformerEncoder(;     (layers): ModuleList(;       (0-1): 2 x TransformerEncoderLayer(;         (self_attn): MultiheadAttention(;           (out_proj): NonDynamicallyQuantizab",BTCUSDT,100,6,64,0.001,50,30,0.0017275034803472362,0.0018631851947770773,close
100.09975485163102,216.52354451456162,ConvFC,"ConvFC(;   (conv): Conv1d(1, 16, kernel_size=(3,), stride=(1,));   (fc): Sequential(;     (0): Linear(in_features=1568, out_features=128, bias=True);     (1): ReLU();     (2): Linear(in_features=128, out_features=6, bias=True);   ); )",BTCUSDT,100,6,64,0.001,50,15,0.0010906673722072607,0.0012912317705251132,close
104.6452101339879,210.63292043904573,SimpleFC,"SimpleFC(;   (fc): Sequential(;     (0): Flatten(start_dim=1, end_dim=-1);     (1): Linear(in_features=100, out_features=128, bias=True);     (2): ReLU();     (3): Linear(in_features=128, out_features=6, bias=True);   ); )",BTCUSDT,100,6,64,0.001,50,15,0.0011262667768753667,0.001276363298949526,close
96.02698640366204,198.2554604968914,GRUStacked,"GRUStacked(;   (gru): GRU(1, 64, num_layers=2, batch_first=True);   (fc): Linear(in_features=64, out_features=6, bias=True); )",BTCUSDT,100,6,64,0.001,50,15,0.0010283633055972173,0.0011965371282153332,close
102.75620695709812,205.207636855621,TransformerTimeSeries,"TransformerTimeSeries(;   (input_projection): Linear(in_features=1, out_features=64, bias=True);   (transformer_encoder): TransformerEncoder(;     (layers): ModuleList(;       (0-1): 2 x TransformerEncoderLayer(;         (self_attn): MultiheadAttention(;           (out_proj): NonDynamicallyQuantizab",BTCUSDT,100,6,64,0.001,50,15,0.0011138403186969337,0.0012487947005865863,close
102.41953972719388,211.39249262314897,ConvFC,"ConvFC(;   (conv): Conv1d(1, 16, kernel_size=(3,), stride=(1,));   (fc): Sequential(;     (0): Linear(in_features=1568, out_features=128, bias=True);     (1): ReLU();     (2): Linear(in_features=128, out_features=6, bias=True);   ); )",BTCUSDT,100,6,64,0.001,50,15,0.001106340932493406,0.0012809556253789477,close
100.33504769613262,208.81055679803185,SimpleFC,"SimpleFC(;   (fc): Sequential(;     (0): Flatten(start_dim=1, end_dim=-1);     (1): Linear(in_features=100, out_features=128, bias=True);     (2): ReLU();     (3): Linear(in_features=128, out_features=6, bias=True);   ); )",BTCUSDT,100,6,64,0.001,50,15,0.0011193428680173598,0.0012674982415494295,close
95.66253040539671,196.69678968152618,GRUStacked,"GRUStacked(;   (gru): GRU(1, 64, num_layers=2, batch_first=True);   (fc): Linear(in_features=64, out_features=6, bias=True); )",BTCUSDT,100,6,64,0.001,50,15,0.001052421041030056,0.0011787659770141966,close
99.29203692608354,201.43823092915912,TransformerTimeSeries,"TransformerTimeSeries(;   (input_projection): Linear(in_features=1, out_features=64, bias=True);   (transformer_encoder): TransformerEncoder(;     (layers): ModuleList(;       (0-1): 2 x TransformerEncoderLayer(;         (self_attn): MultiheadAttention(;           (out_proj): NonDynamicallyQuantizab",BTCUSDT,100,6,64,0.001,50,15,0.001101731255595267,0.0013123056418967631,close
100.45678455151914,206.95336260530667,ConvFC,"ConvFC(;   (conv): Conv1d(1, 16, kernel_size=(3,), stride=(1,));   (fc): Sequential(;     (0): Linear(in_features=1568, out_features=128, bias=True);     (1): ReLU();     (2): Linear(in_features=128, out_features=6, bias=True);   ); )",BTCUSDT,100,6,64,0.001,50,15,0.0011290086504993054,0.0012616954326613967,close
104.99457566622083,214.8348996202428,SimpleFC,"SimpleFC(;   (fc): Sequential(;     (0): Flatten(start_dim=1, end_dim=-1);     (1): Linear(in_features=100, out_features=128, bias=True);     (2): ReLU();     (3): Linear(in_features=128, out_features=6, bias=True);   ); )",BTCUSDT,100,6,64,0.001,50,15,0.0011155253557845392,0.0012836283002308426,close
94.99031896443114,199.7723932394454,GRUStacked,"GRUStacked(;   (gru): GRU(1, 64, num_layers=2, batch_first=True);   (fc): Linear(in_features=64, out_features=6, bias=True); )",BTCUSDT,100,6,64,0.001,50,15,0.0010684377229814028,0.0011929174101029416,close
115.35497451096218,218.31536336806982,TransformerTimeSeries,"TransformerTimeSeries(;   (input_projection): Linear(in_features=1, out_features=64, bias=True);   (transformer_encoder): TransformerEncoder(;     (layers): ModuleList(;       (0-1): 2 x TransformerEncoderLayer(;         (self_attn): MultiheadAttention(;           (out_proj): NonDynamicallyQuantizab",BTCUSDT,100,6,64,0.001,50,15,0.0011506300193285736,0.001327950478438512,close
102.00517863737197,208.2513555796829,ConvFC,"ConvFC(;   (conv): Conv1d(1, 16, kernel_size=(3,), stride=(1,));   (fc): Sequential(;     (0): Linear(in_features=1568, out_features=128, bias=True);     (1): ReLU();     (2): Linear(in_features=128, out_features=6, bias=True);   ); )",BTCUSDT,100,6,64,0.001,50,15,0.0011181818494692686,0.0012910026640523798,close
107.48519492941044,216.59013664860973,SimpleFC,"SimpleFC(;   (fc): Sequential(;     (0): Flatten(start_dim=1, end_dim=-1);     (1): Linear(in_features=100, out_features=128, bias=True);     (2): ReLU();     (3): Linear(in_features=128, out_features=6, bias=True);   ); )",BTCUSDT,100,6,64,0.001,50,15,0.0011276487766162062,0.0012942743472264668,close
96.26543628795746,202.24464992799255,GRUStacked,"GRUStacked(;   (gru): GRU(1, 64, num_layers=2, batch_first=True);   (fc): Linear(in_features=64, out_features=6, bias=True); )",BTCUSDT,100,6,64,0.001,50,15,0.0010611665850653426,0.0011823853500782906,close
101.64205662992693,205.279247738084,TransformerTimeSeries,"TransformerTimeSeries(;   (input_projection): Linear(in_features=1, out_features=64, bias=True);   (transformer_encoder): TransformerEncoder(;     (layers): ModuleList(;       (0-1): 2 x TransformerEncoderLayer(;         (self_attn): MultiheadAttention(;           (out_proj): NonDynamicallyQuantizab",BTCUSDT,100,6,64,0.001,50,15,0.0011634943079071142,0.0012393638158895415,close
101.58482925451175,205.63910670735063,ConvFC,"ConvFC(;   (conv): Conv1d(1, 16, kernel_size=(3,), stride=(1,));   (fc): Sequential(;     (0): Linear(in_features=1568, out_features=128, bias=True);     (1): ReLU();     (2): Linear(in_features=128, out_features=6, bias=True);   ); )",BTCUSDT,100,6,64,0.001,50,15,0.0011335501483410331,0.0012691659723294345,close
118.06256964062804,233.88889583438268,SimpleFC,"SimpleFC(;   (fc): Sequential(;     (0): Flatten(start_dim=1, end_dim=-1);     (1): Linear(in_features=100, out_features=128, bias=True);     (2): ReLU();     (3): Linear(in_features=128, out_features=6, bias=True);   ); )",BTCUSDT,100,6,64,0.001,50,15,0.0011414417530542856,0.0013735996901512127,close
94.93619806623268,197.67813015212758,GRUStacked,"GRUStacked(;   (gru): GRU(1, 64, num_layers=2, batch_first=True);   (fc): Linear(in_features=64, out_features=6, bias=True); )",BTCUSDT,100,6,64,0.001,50,15,0.0010736814818797897,0.001187447328377927,close
114.20501092881669,217.13620943068204,TransformerTimeSeries,"TransformerTimeSeries(;   (input_projection): Linear(in_features=1, out_features=64, bias=True);   (transformer_encoder): TransformerEncoder(;     (layers): ModuleList(;       (0-1): 2 x TransformerEncoderLayer(;         (self_attn): MultiheadAttention(;           (out_proj): NonDynamicallyQuantizab",BTCUSDT,100,6,64,0.001,50,15,0.0011704574783114826,0.0013603535991513547,close
100.6247647848182,205.4756471316739,ConvFC,"ConvFC(;   (conv): Conv1d(1, 16, kernel_size=(3,), stride=(1,));   (fc): Sequential(;     (0): Linear(in_features=1568, out_features=128, bias=True);     (1): ReLU();     (2): Linear(in_features=128, out_features=6, bias=True);   ); )",BTCUSDT,100,6,64,0.001,50,15,0.0011173360524727837,0.0012744858749311578,close
102.45268790817858,217.36670648662752,SimpleFC,"SimpleFC(;   (fc): Sequential(;     (0): Flatten(start_dim=1, end_dim=-1);     (1): Linear(in_features=100, out_features=128, bias=True);     (2): ReLU();     (3): Linear(in_features=128, out_features=6, bias=True);   ); )",BTCUSDT,100,6,64,0.001,50,15,0.0011427923060863552,0.0012730112160240354,close
99.20185363178312,199.50933647769702,GRUStacked,"GRUStacked(;   (gru): GRU(1, 64, num_layers=2, batch_first=True);   (fc): Linear(in_features=64, out_features=6, bias=True); )",BTCUSDT,100,6,64,0.001,50,15,0.0010756043842543345,0.0011929879365197849,close
120.70259085274891,223.55198998949675,TransformerTimeSeries,"TransformerTimeSeries(;   (input_projection): Linear(in_features=1, out_features=64, bias=True);   (transformer_encoder): TransformerEncoder(;     (layers): ModuleList(;       (0-1): 2 x TransformerEncoderLayer(;         (self_attn): MultiheadAttention(;           (out_proj): NonDynamicallyQuantizab",BTCUSDT,100,6,64,0.001,50,15,0.0012592357112333021,0.0014110083291318286,close
97.5478764216325,208.5904268696314,ConvFC,"ConvFC(;   (conv): Conv1d(1, 16, kernel_size=(3,), stride=(1,));   (fc): Sequential(;     (0): Linear(in_features=1568, out_features=128, bias=True);     (1): ReLU();     (2): Linear(in_features=128, out_features=6, bias=True);   ); )",BTCUSDT,100,6,64,0.0005,50,30,0.0015633900914375067,0.0018801726258145016,close
98.19957195182577,205.99702582803414,SimpleFC,"SimpleFC(;   (fc): Sequential(;     (0): Flatten(start_dim=1, end_dim=-1);     (1): Linear(in_features=100, out_features=128, bias=True);     (2): ReLU();     (3): Linear(in_features=128, out_features=6, bias=True);   ); )",BTCUSDT,100,6,64,0.0005,50,30,0.001598100690434614,0.001836000942467073,close
93.24595909856379,202.09715458858878,GRUStacked,"GRUStacked(;   (gru): GRU(1, 64, num_layers=2, batch_first=True);   (fc): Linear(in_features=64, out_features=6, bias=True); )",BTCUSDT,100,6,64,0.0005,50,30,0.0015475437251818386,0.0018425344392220863,close
96.07753835200691,203.73621694452575,TransformerTimeSeries,"TransformerTimeSeries(;   (input_projection): Linear(in_features=1, out_features=64, bias=True);   (transformer_encoder): TransformerEncoder(;     (layers): ModuleList(;       (0-1): 2 x TransformerEncoderLayer(;         (self_attn): MultiheadAttention(;           (out_proj): NonDynamicallyQuantizab",BTCUSDT,100,6,64,0.0005,50,30,0.0015553404153973013,0.0018497438904360288,close
98.04900522877396,211.77993839742498,ConvFC,"ConvFC(;   (conv): Conv1d(1, 16, kernel_size=(3,), stride=(1,));   (fc): Sequential(;     (0): Linear(in_features=1568, out_features=128, bias=True);     (1): ReLU();     (2): Linear(in_features=128, out_features=6, bias=True);   ); )",BTCUSDT,100,6,64,0.0005,50,30,0.0015477967656610996,0.0019012343504433498,close
99.31108164125108,206.9433487897769,SimpleFC,"SimpleFC(;   (fc): Sequential(;     (0): Flatten(start_dim=1, end_dim=-1);     (1): Linear(in_features=100, out_features=128, bias=True);     (2): ReLU();     (3): Linear(in_features=128, out_features=6, bias=True);   ); )",BTCUSDT,100,6,64,0.0005,50,30,0.0016019426665728111,0.0018401828466280215,close
92.28261349336987,199.87922156437762,GRUStacked,"GRUStacked(;   (gru): GRU(1, 64, num_layers=2, batch_first=True);   (fc): Linear(in_features=64, out_features=6, bias=True); )",BTCUSDT,100,6,64,0.0005,50,30,0.0015276864034731187,0.0017985545141945237,close
94.7372931803722,204.85942126099428,TransformerTimeSeries,"TransformerTimeSeries(;   (input_projection): Linear(in_features=1, out_features=64, bias=True);   (transformer_encoder): TransformerEncoder(;     (layers): ModuleList(;       (0-1): 2 x TransformerEncoderLayer(;         (self_attn): MultiheadAttention(;           (out_proj): NonDynamicallyQuantizab",BTCUSDT,100,6,64,0.0005,50,30,0.0015655502428084138,0.0018684391729794623,close
100.59557377423862,206.06228104205852,ConvFC,"ConvFC(;   (conv): Conv1d(1, 16, kernel_size=(3,), stride=(1,));   (fc): Sequential(;     (0): Linear(in_features=1568, out_features=128, bias=True);     (1): ReLU();     (2): Linear(in_features=128, out_features=6, bias=True);   ); )",BTCUSDT,100,6,64,0.0005,50,30,0.0015911284528895625,0.0018667585625181623,close
97.60485842677191,207.9310044550024,SimpleFC,"SimpleFC(;   (fc): Sequential(;     (0): Flatten(start_dim=1, end_dim=-1);     (1): Linear(in_features=100, out_features=128, bias=True);     (2): ReLU();     (3): Linear(in_features=128, out_features=6, bias=True);   ); )",BTCUSDT,100,6,64,0.0005,50,30,0.001607291835073742,0.0018578706062308869,close
93.20337254039548,199.53723394306633,GRUStacked,"GRUStacked(;   (gru): GRU(1, 64, num_layers=2, batch_first=True);   (fc): Linear(in_features=64, out_features=6, bias=True); )",BTCUSDT,100,6,64,0.0005,50,30,0.0015506583635806425,0.0017925071131307542,close
92.93915066510351,202.44132591042612,TransformerTimeSeries,"TransformerTimeSeries(;   (input_projection): Linear(in_features=1, out_features=64, bias=True);   (transformer_encoder): TransformerEncoder(;     (layers): ModuleList(;       (0-1): 2 x TransformerEncoderLayer(;         (self_attn): MultiheadAttention(;           (out_proj): NonDynamicallyQuantizab",BTCUSDT,100,6,64,0.0005,50,30,0.0016019400713814548,0.0018176167822613917,close
97.53123931227731,206.80969178498268,ConvFC,"ConvFC(;   (conv): Conv1d(1, 16, kernel_size=(3,), stride=(1,));   (fc): Sequential(;     (0): Linear(in_features=1568, out_features=128, bias=True);     (1): ReLU();     (2): Linear(in_features=128, out_features=6, bias=True);   ); )",BTCUSDT,100,6,64,0.0005,50,30,0.0015788017287872737,0.0018649320268569343,close
94.48382630593852,203.3046662954696,SimpleFC,"SimpleFC(;   (fc): Sequential(;     (0): Flatten(start_dim=1, end_dim=-1);     (1): Linear(in_features=100, out_features=128, bias=True);     (2): ReLU();     (3): Linear(in_features=128, out_features=6, bias=True);   ); )",BTCUSDT,100,6,64,0.0005,50,30,0.0016197245940118925,0.0018320649471145196,close
97.01231377813711,200.85156574077166,GRUStacked,"GRUStacked(;   (gru): GRU(1, 64, num_layers=2, batch_first=True);   (fc): Linear(in_features=64, out_features=6, bias=True); )",BTCUSDT,100,6,64,0.0005,50,30,0.0015485494911229296,0.001808258266877698,close
101.70244947947157,207.46267166735853,TransformerTimeSeries,"TransformerTimeSeries(;   (input_projection): Linear(in_features=1, out_features=64, bias=True);   (transformer_encoder): TransformerEncoder(;     (layers): ModuleList(;       (0-1): 2 x TransformerEncoderLayer(;         (self_attn): MultiheadAttention(;           (out_proj): NonDynamicallyQuantizab",BTCUSDT,100,6,64,0.0005,50,30,0.0016054170097119656,0.0018742171574242252,close
100.92874253555361,209.22081882961052,ConvFC,"ConvFC(;   (conv): Conv1d(1, 16, kernel_size=(3,), stride=(1,));   (fc): Sequential(;     (0): Linear(in_features=1568, out_features=128, bias=True);     (1): ReLU();     (2): Linear(in_features=128, out_features=6, bias=True);   ); )",BTCUSDT,100,6,64,0.0005,50,30,0.0015868728935947854,0.0018928326435211668,close
97.54951411538589,205.60560496327207,SimpleFC,"SimpleFC(;   (fc): Sequential(;     (0): Flatten(start_dim=1, end_dim=-1);     (1): Linear(in_features=100, out_features=128, bias=True);     (2): ReLU();     (3): Linear(in_features=128, out_features=6, bias=True);   ); )",BTCUSDT,100,6,64,0.0005,50,30,0.0016233029413459867,0.0018417043698578173,close
91.26804252731556,201.38457265188057,GRUStacked,"GRUStacked(;   (gru): GRU(1, 64, num_layers=2, batch_first=True);   (fc): Linear(in_features=64, out_features=6, bias=True); )",BTCUSDT,100,6,64,0.0005,50,30,0.0015642703216189496,0.001790369528313145,close
95.91586949700881,205.83643466044603,TransformerTimeSeries,"TransformerTimeSeries(;   (input_projection): Linear(in_features=1, out_features=64, bias=True);   (transformer_encoder): TransformerEncoder(;     (layers): ModuleList(;       (0-1): 2 x TransformerEncoderLayer(;         (self_attn): MultiheadAttention(;           (out_proj): NonDynamicallyQuantizab",BTCUSDT,100,6,64,0.0005,50,30,0.0016142881730656345,0.0018705794108853841,close
96.13296988444796,205.60743895277733,ConvFC,"ConvFC(;   (conv): Conv1d(1, 16, kernel_size=(3,), stride=(1,));   (fc): Sequential(;     (0): Linear(in_features=1568, out_features=128, bias=True);     (1): ReLU();     (2): Linear(in_features=128, out_features=6, bias=True);   ); )",BTCUSDT,100,6,64,0.0005,50,30,0.0015708403042242933,0.001858074562148875,close
111.4895984183106,213.3189559651527,SimpleFC,"SimpleFC(;   (fc): Sequential(;     (0): Flatten(start_dim=1, end_dim=-1);     (1): Linear(in_features=100, out_features=128, bias=True);     (2): ReLU();     (3): Linear(in_features=128, out_features=6, bias=True);   ); )",BTCUSDT,100,6,64,0.0005,50,30,0.0016301083868348382,0.0019353161148945148,close
96.13756466331061,201.3961832811597,GRUStacked,"GRUStacked(;   (gru): GRU(1, 64, num_layers=2, batch_first=True);   (fc): Linear(in_features=64, out_features=6, bias=True); )",BTCUSDT,100,6,64,0.0005,50,30,0.0015592700877643366,0.0018019808192258242,close
101.51849621247995,208.16463837690924,TransformerTimeSeries,"TransformerTimeSeries(;   (input_projection): Linear(in_features=1, out_features=64, bias=True);   (transformer_encoder): TransformerEncoder(;     (layers): ModuleList(;       (0-1): 2 x TransformerEncoderLayer(;         (self_attn): MultiheadAttention(;           (out_proj): NonDynamicallyQuantizab",BTCUSDT,100,6,64,0.0005,50,30,0.0016965410503733199,0.0018973858995534085,close
98.17418157144294,207.64233553798746,ConvFC,"ConvFC(;   (conv): Conv1d(1, 16, kernel_size=(3,), stride=(1,));   (fc): Sequential(;     (0): Linear(in_features=1568, out_features=128, bias=True);     (1): ReLU();     (2): Linear(in_features=128, out_features=6, bias=True);   ); )",BTCUSDT,100,6,64,0.0005,50,30,0.0016252810457422408,0.0018502072704470029,close
96.42581905307156,205.26225044428745,SimpleFC,"SimpleFC(;   (fc): Sequential(;     (0): Flatten(start_dim=1, end_dim=-1);     (1): Linear(in_features=100, out_features=128, bias=True);     (2): ReLU();     (3): Linear(in_features=128, out_features=6, bias=True);   ); )",BTCUSDT,100,6,64,0.0005,50,30,0.0016509171430227846,0.0018479549032152328,close
96.944657235171,205.93610623749942,GRUStacked,"GRUStacked(;   (gru): GRU(1, 64, num_layers=2, batch_first=True);   (fc): Linear(in_features=64, out_features=6, bias=True); )",BTCUSDT,100,6,64,0.0005,50,30,0.001605122663311926,0.0018613577187949891,close
98.29854494649972,205.18638655813618,TransformerTimeSeries,"TransformerTimeSeries(;   (input_projection): Linear(in_features=1, out_features=64, bias=True);   (transformer_encoder): TransformerEncoder(;     (layers): ModuleList(;       (0-1): 2 x TransformerEncoderLayer(;         (self_attn): MultiheadAttention(;           (out_proj): NonDynamicallyQuantizab",BTCUSDT,100,6,64,0.0005,50,30,0.0017053426728189114,0.0018540831837535426,close
102.41935067773427,216.4769372986465,ConvFC,"ConvFC(;   (conv): Conv1d(1, 16, kernel_size=(3,), stride=(1,));   (fc): Sequential(;     (0): Linear(in_features=1568, out_features=128, bias=True);     (1): ReLU();     (2): Linear(in_features=128, out_features=6, bias=True);   ); )",BTCUSDT,100,6,64,0.0005,50,15,0.0010580719539730213,0.001315988428849288,close
101.48668738684343,208.88108560481817,SimpleFC,"SimpleFC(;   (fc): Sequential(;     (0): Flatten(start_dim=1, end_dim=-1);     (1): Linear(in_features=100, out_features=128, bias=True);     (2): ReLU();     (3): Linear(in_features=128, out_features=6, bias=True);   ); )",BTCUSDT,100,6,64,0.0005,50,15,0.00110011370514043,0.0012682437083220486,close
94.1071154862608,195.932404665769,GRUStacked,"GRUStacked(;   (gru): GRU(1, 64, num_layers=2, batch_first=True);   (fc): Linear(in_features=64, out_features=6, bias=True); )",BTCUSDT,100,6,64,0.0005,50,15,0.0010047249801952611,0.0012102956674285592,close
100.72608686819098,205.75669064597784,TransformerTimeSeries,"TransformerTimeSeries(;   (input_projection): Linear(in_features=1, out_features=64, bias=True);   (transformer_encoder): TransformerEncoder(;     (layers): ModuleList(;       (0-1): 2 x TransformerEncoderLayer(;         (self_attn): MultiheadAttention(;           (out_proj): NonDynamicallyQuantizab",BTCUSDT,100,6,64,0.0005,50,15,0.0010622232994374492,0.0012667698482311186,close
101.70572380618422,213.9077578250302,ConvFC,"ConvFC(;   (conv): Conv1d(1, 16, kernel_size=(3,), stride=(1,));   (fc): Sequential(;     (0): Linear(in_features=1568, out_features=128, bias=True);     (1): ReLU();     (2): Linear(in_features=128, out_features=6, bias=True);   ); )",BTCUSDT,100,6,64,0.0005,50,15,0.0010812247953449845,0.001282737005497508,close
102.61997291427126,211.0915478357168,SimpleFC,"SimpleFC(;   (fc): Sequential(;     (0): Flatten(start_dim=1, end_dim=-1);     (1): Linear(in_features=100, out_features=128, bias=True);     (2): ReLU();     (3): Linear(in_features=128, out_features=6, bias=True);   ); )",BTCUSDT,100,6,64,0.0005,50,15,0.001090500214337071,0.001276890435362405,close
95.14863021558934,196.18830518617438,GRUStacked,"GRUStacked(;   (gru): GRU(1, 64, num_layers=2, batch_first=True);   (fc): Linear(in_features=64, out_features=6, bias=True); )",BTCUSDT,100,6,64,0.0005,50,15,0.0010201419180551983,0.0011882522104105402,close
96.06127226680076,203.943487775896,TransformerTimeSeries,"TransformerTimeSeries(;   (input_projection): Linear(in_features=1, out_features=64, bias=True);   (transformer_encoder): TransformerEncoder(;     (layers): ModuleList(;       (0-1): 2 x TransformerEncoderLayer(;         (self_attn): MultiheadAttention(;           (out_proj): NonDynamicallyQuantizab",BTCUSDT,100,6,64,0.0005,50,15,0.001067726325996818,0.0012400117482404592,close
100.79804321158922,209.030631817144,ConvFC,"ConvFC(;   (conv): Conv1d(1, 16, kernel_size=(3,), stride=(1,));   (fc): Sequential(;     (0): Linear(in_features=1568, out_features=128, bias=True);     (1): ReLU();     (2): Linear(in_features=128, out_features=6, bias=True);   ); )",BTCUSDT,100,6,64,0.0005,50,15,0.0010897320811716592,0.0012747226047185205,close
105.97619228966441,218.81431820963385,SimpleFC,"SimpleFC(;   (fc): Sequential(;     (0): Flatten(start_dim=1, end_dim=-1);     (1): Linear(in_features=100, out_features=128, bias=True);     (2): ReLU();     (3): Linear(in_features=128, out_features=6, bias=True);   ); )",BTCUSDT,100,6,64,0.0005,50,15,0.0010794699218795495,0.0012938298542184595,close
95.67892824169313,197.63135752405944,GRUStacked,"GRUStacked(;   (gru): GRU(1, 64, num_layers=2, batch_first=True);   (fc): Linear(in_features=64, out_features=6, bias=True); )",BTCUSDT,100,6,64,0.0005,50,15,0.0010474943412568125,0.0011824869462333692,close
100.80847453682048,206.57391861175594,TransformerTimeSeries,"TransformerTimeSeries(;   (input_projection): Linear(in_features=1, out_features=64, bias=True);   (transformer_encoder): TransformerEncoder(;     (layers): ModuleList(;       (0-1): 2 x TransformerEncoderLayer(;         (self_attn): MultiheadAttention(;           (out_proj): NonDynamicallyQuantizab",BTCUSDT,100,6,64,0.0005,50,15,0.0010974931583991492,0.0012408075901755812,close
100.67722632696952,210.9045862694505,ConvFC,"ConvFC(;   (conv): Conv1d(1, 16, kernel_size=(3,), stride=(1,));   (fc): Sequential(;     (0): Linear(in_features=1568, out_features=128, bias=True);     (1): ReLU();     (2): Linear(in_features=128, out_features=6, bias=True);   ); )",BTCUSDT,100,6,64,0.0005,50,15,0.0010817398108600733,0.001286908864970498,close
101.4750344261109,215.8917147569931,SimpleFC,"SimpleFC(;   (fc): Sequential(;     (0): Flatten(start_dim=1, end_dim=-1);     (1): Linear(in_features=100, out_features=128, bias=True);     (2): ReLU();     (3): Linear(in_features=128, out_features=6, bias=True);   ); )",BTCUSDT,100,6,64,0.0005,50,15,0.001100564797225872,0.0012651052234454814,close
98.30325700641987,199.23965757869996,GRUStacked,"GRUStacked(;   (gru): GRU(1, 64, num_layers=2, batch_first=True);   (fc): Linear(in_features=64, out_features=6, bias=True); )",BTCUSDT,100,6,64,0.0005,50,15,0.0010344207037156587,0.0012060778074625817,close
103.0483431487279,203.67209273535855,TransformerTimeSeries,"TransformerTimeSeries(;   (input_projection): Linear(in_features=1, out_features=64, bias=True);   (transformer_encoder): TransformerEncoder(;     (layers): ModuleList(;       (0-1): 2 x TransformerEncoderLayer(;         (self_attn): MultiheadAttention(;           (out_proj): NonDynamicallyQuantizab",BTCUSDT,100,6,64,0.0005,50,15,0.0011004237200606829,0.001257685955351917,close
102.90322090801124,208.69513644912033,ConvFC,"ConvFC(;   (conv): Conv1d(1, 16, kernel_size=(3,), stride=(1,));   (fc): Sequential(;     (0): Linear(in_features=1568, out_features=128, bias=True);     (1): ReLU();     (2): Linear(in_features=128, out_features=6, bias=True);   ); )",BTCUSDT,100,6,64,0.0005,50,15,0.001096755064019757,0.0012718566206156258,close
110.34960195091578,219.2481199430074,SimpleFC,"SimpleFC(;   (fc): Sequential(;     (0): Flatten(start_dim=1, end_dim=-1);     (1): Linear(in_features=100, out_features=128, bias=True);     (2): ReLU();     (3): Linear(in_features=128, out_features=6, bias=True);   ); )",BTCUSDT,100,6,64,0.0005,50,15,0.0011053891007409052,0.0013109390376764797,close
95.13032079735838,197.6990322897066,GRUStacked,"GRUStacked(;   (gru): GRU(1, 64, num_layers=2, batch_first=True);   (fc): Linear(in_features=64, out_features=6, bias=True); )",BTCUSDT,100,6,64,0.0005,50,15,0.0010488785442254866,0.0011731630617689986,close
97.83210094089617,202.94622507555417,TransformerTimeSeries,"TransformerTimeSeries(;   (input_projection): Linear(in_features=1, out_features=64, bias=True);   (transformer_encoder): TransformerEncoder(;     (layers): ModuleList(;       (0-1): 2 x TransformerEncoderLayer(;         (self_attn): MultiheadAttention(;           (out_proj): NonDynamicallyQuantizab",BTCUSDT,100,6,64,0.0005,50,15,0.0011153430105854511,0.0012502343081275914,close
103.41307533404438,213.72866873871814,ConvFC,"ConvFC(;   (conv): Conv1d(1, 16, kernel_size=(3,), stride=(1,));   (fc): Sequential(;     (0): Linear(in_features=1568, out_features=128, bias=True);     (1): ReLU();     (2): Linear(in_features=128, out_features=6, bias=True);   ); )",BTCUSDT,100,6,64,0.0005,50,15,0.001089762969597898,0.0012815292996562605,close
101.39361836109127,217.80955421390277,SimpleFC,"SimpleFC(;   (fc): Sequential(;     (0): Flatten(start_dim=1, end_dim=-1);     (1): Linear(in_features=100, out_features=128, bias=True);     (2): ReLU();     (3): Linear(in_features=128, out_features=6, bias=True);   ); )",BTCUSDT,100,6,64,0.0005,50,15,0.0011036313764574658,0.0012626141205356151,close
98.929313425909,199.49575163593246,GRUStacked,"GRUStacked(;   (gru): GRU(1, 64, num_layers=2, batch_first=True);   (fc): Linear(in_features=64, out_features=6, bias=True); )",BTCUSDT,100,6,64,0.0005,50,15,0.0010369489722711447,0.0011896277252302612,close
101.8909552680559,205.66242850827678,TransformerTimeSeries,"TransformerTimeSeries(;   (input_projection): Linear(in_features=1, out_features=64, bias=True);   (transformer_encoder): TransformerEncoder(;     (layers): ModuleList(;       (0-1): 2 x TransformerEncoderLayer(;         (self_attn): MultiheadAttention(;           (out_proj): NonDynamicallyQuantizab",BTCUSDT,100,6,64,0.0005,50,15,0.0011439372680232373,0.0012419488980063202,close
102.24219061789235,211.5184709928739,ConvFC,"ConvFC(;   (conv): Conv1d(1, 16, kernel_size=(3,), stride=(1,));   (fc): Sequential(;     (0): Linear(in_features=1568, out_features=128, bias=True);     (1): ReLU();     (2): Linear(in_features=128, out_features=6, bias=True);   ); )",BTCUSDT,100,6,64,0.0005,50,15,0.0011181745112318524,0.0012526143001685762,close
105.93484740797972,210.75974738589466,SimpleFC,"SimpleFC(;   (fc): Sequential(;     (0): Flatten(start_dim=1, end_dim=-1);     (1): Linear(in_features=100, out_features=128, bias=True);     (2): ReLU();     (3): Linear(in_features=128, out_features=6, bias=True);   ); )",BTCUSDT,100,6,64,0.0005,50,15,0.0011382285519186868,0.001274286083851341,close
96.59275061040076,196.62571992654352,GRUStacked,"GRUStacked(;   (gru): GRU(1, 64, num_layers=2, batch_first=True);   (fc): Linear(in_features=64, out_features=6, bias=True); )",BTCUSDT,100,6,64,0.0005,50,15,0.0010677657550598773,0.0011796854551693497,close
99.13413615484353,204.0342990093269,TransformerTimeSeries,"TransformerTimeSeries(;   (input_projection): Linear(in_features=1, out_features=64, bias=True);   (transformer_encoder): TransformerEncoder(;     (layers): ModuleList(;       (0-1): 2 x TransformerEncoderLayer(;         (self_attn): MultiheadAttention(;           (out_proj): NonDynamicallyQuantizab",BTCUSDT,100,6,64,0.0005,50,15,0.0011637477408289725,0.0012522855021625918,close
108.63905349638922,215.79399361477041,ConvFC,"ConvFC(;   (conv): Conv1d(1, 16, kernel_size=(3,), stride=(1,));   (fc): Sequential(;     (0): Linear(in_features=1568, out_features=128, bias=True);     (1): ReLU();     (2): Linear(in_features=128, out_features=6, bias=True);   ); )",BTCUSDT,100,6,64,0.0005,50,15,0.0011815790233342168,0.0012998321368426192,close
102.23926102385433,214.37918748334792,SimpleFC,"SimpleFC(;   (fc): Sequential(;     (0): Flatten(start_dim=1, end_dim=-1);     (1): Linear(in_features=100, out_features=128, bias=True);     (2): ReLU();     (3): Linear(in_features=128, out_features=6, bias=True);   ); )",BTCUSDT,100,6,64,0.0005,50,15,0.0011341692640657558,0.0012734625621445817,close
99.05855064215035,198.3501302093397,GRUStacked,"GRUStacked(;   (gru): GRU(1, 64, num_layers=2, batch_first=True);   (fc): Linear(in_features=64, out_features=6, bias=True); )",BTCUSDT,100,6,64,0.0005,50,15,0.0010847570874044142,0.0011864696432614718,close
110.6737122493628,217.06273876872822,TransformerTimeSeries,"TransformerTimeSeries(;   (input_projection): Linear(in_features=1, out_features=64, bias=True);   (transformer_encoder): TransformerEncoder(;     (layers): ModuleList(;       (0-1): 2 x TransformerEncoderLayer(;         (self_attn): MultiheadAttention(;           (out_proj): NonDynamicallyQuantizab",BTCUSDT,100,6,64,0.0005,50,15,0.0012544497834542185,0.001355458616532045,close
82.74150964970742,175.66031988829,ConvFC,"ConvFC(;   (conv): Conv1d(1, 16, kernel_size=(3,), stride=(1,));   (fc): Sequential(;     (0): Linear(in_features=1568, out_features=128, bias=True);     (1): ReLU();     (2): Linear(in_features=128, out_features=12, bias=True);   ); )",BTCUSDT,100,12,32,0.001,50,30,0.0018026396327293444,0.0020542317829824533,close
82.22397696099553,177.6538054589095,SimpleFC,"SimpleFC(;   (fc): Sequential(;     (0): Flatten(start_dim=1, end_dim=-1);     (1): Linear(in_features=100, out_features=128, bias=True);     (2): ReLU();     (3): Linear(in_features=128, out_features=12, bias=True);   ); )",BTCUSDT,100,12,32,0.001,50,30,0.0017935222586234628,0.00203273823761546,close
79.36130105427556,171.62261389471703,GRUStacked,"GRUStacked(;   (gru): GRU(1, 64, num_layers=2, batch_first=True);   (fc): Linear(in_features=64, out_features=12, bias=True); )",BTCUSDT,100,12,32,0.001,50,30,0.0016835755885311185,0.0019804963263542986,close
86.5549643154602,175.46211743408494,TransformerTimeSeries,"TransformerTimeSeries(;   (input_projection): Linear(in_features=1, out_features=64, bias=True);   (transformer_encoder): TransformerEncoder(;     (layers): ModuleList(;       (0-1): 2 x TransformerEncoderLayer(;         (self_attn): MultiheadAttention(;           (out_proj): NonDynamicallyQuantizab",BTCUSDT,100,12,32,0.001,50,30,0.0018704334929439718,0.0020844338516133065,close
85.83867636989284,166.57659371314995,ConvFC,"ConvFC(;   (conv): Conv1d(1, 16, kernel_size=(3,), stride=(1,));   (fc): Sequential(;     (0): Linear(in_features=1568, out_features=128, bias=True);     (1): ReLU();     (2): Linear(in_features=128, out_features=12, bias=True);   ); )",BTCUSDT,100,12,32,0.001,50,15,0.0018368800776071312,0.002206155292543297,close
89.25522844311435,169.33967661351804,SimpleFC,"SimpleFC(;   (fc): Sequential(;     (0): Flatten(start_dim=1, end_dim=-1);     (1): Linear(in_features=100, out_features=128, bias=True);     (2): ReLU();     (3): Linear(in_features=128, out_features=12, bias=True);   ); )",BTCUSDT,100,12,32,0.001,50,15,0.0018388970623454603,0.002227410429383961,close
81.75620135717216,162.77492576112542,GRUStacked,"GRUStacked(;   (gru): GRU(1, 64, num_layers=2, batch_first=True);   (fc): Linear(in_features=64, out_features=12, bias=True); )",BTCUSDT,100,12,32,0.001,50,15,0.0016597872951081719,0.00200263705975033,close
93.15491642988609,169.7744957757969,TransformerTimeSeries,"TransformerTimeSeries(;   (input_projection): Linear(in_features=1, out_features=64, bias=True);   (transformer_encoder): TransformerEncoder(;     (layers): ModuleList(;       (0-1): 2 x TransformerEncoderLayer(;         (self_attn): MultiheadAttention(;           (out_proj): NonDynamicallyQuantizab",BTCUSDT,100,12,32,0.001,50,15,0.0018970845395129682,0.0023338033227617784,close
85.35070643951163,165.25958759398856,ConvFC,"ConvFC(;   (conv): Conv1d(1, 16, kernel_size=(3,), stride=(1,));   (fc): Sequential(;     (0): Linear(in_features=1568, out_features=128, bias=True);     (1): ReLU();     (2): Linear(in_features=128, out_features=12, bias=True);   ); )",BTCUSDT,100,12,32,0.001,50,15,0.0018838655053031413,0.0021965100774171725,close
88.47767851496822,172.6323496886115,SimpleFC,"SimpleFC(;   (fc): Sequential(;     (0): Flatten(start_dim=1, end_dim=-1);     (1): Linear(in_features=100, out_features=128, bias=True);     (2): ReLU();     (3): Linear(in_features=128, out_features=12, bias=True);   ); )",BTCUSDT,100,12,32,0.001,50,15,0.0018478302929711059,0.0022285637721109457,close
79.87044812594796,160.89276204583894,GRUStacked,"GRUStacked(;   (gru): GRU(1, 64, num_layers=2, batch_first=True);   (fc): Linear(in_features=64, out_features=12, bias=True); )",BTCUSDT,100,12,32,0.001,50,15,0.0016779203064855002,0.0020244516272565735,close
104.74577743661915,188.00628114799068,TransformerTimeSeries,"TransformerTimeSeries(;   (input_projection): Linear(in_features=1, out_features=64, bias=True);   (transformer_encoder): TransformerEncoder(;     (layers): ModuleList(;       (0-1): 2 x TransformerEncoderLayer(;         (self_attn): MultiheadAttention(;           (out_proj): NonDynamicallyQuantizab",BTCUSDT,100,12,32,0.001,50,15,0.002089068289898561,0.002591459222159299,close
82.96957505907493,178.21501583665068,ConvFC,"ConvFC(;   (conv): Conv1d(1, 16, kernel_size=(3,), stride=(1,));   (fc): Sequential(;     (0): Linear(in_features=1568, out_features=128, bias=True);     (1): ReLU();     (2): Linear(in_features=128, out_features=12, bias=True);   ); )",BTCUSDT,100,12,32,0.0005,50,30,0.001696259884911448,0.002031597242293995,close
84.15364329458005,178.34929487091532,SimpleFC,"SimpleFC(;   (fc): Sequential(;     (0): Flatten(start_dim=1, end_dim=-1);     (1): Linear(in_features=100, out_features=128, bias=True);     (2): ReLU();     (3): Linear(in_features=128, out_features=12, bias=True);   ); )",BTCUSDT,100,12,32,0.0005,50,30,0.0017287351871238523,0.0020469929250719245,close
79.9435612785327,173.34267331289345,GRUStacked,"GRUStacked(;   (gru): GRU(1, 64, num_layers=2, batch_first=True);   (fc): Linear(in_features=64, out_features=12, bias=True); )",BTCUSDT,100,12,32,0.0005,50,30,0.0015797628799383704,0.0020392037096676856,close
85.56608165796355,179.21699766926722,TransformerTimeSeries,"TransformerTimeSeries(;   (input_projection): Linear(in_features=1, out_features=64, bias=True);   (transformer_encoder): TransformerEncoder(;     (layers): ModuleList(;       (0-1): 2 x TransformerEncoderLayer(;         (self_attn): MultiheadAttention(;           (out_proj): NonDynamicallyQuantizab",BTCUSDT,100,12,32,0.0005,50,30,0.0017300457075005238,0.0020668869256041944,close
82.688405464972,176.11358783588227,ConvFC,"ConvFC(;   (conv): Conv1d(1, 16, kernel_size=(3,), stride=(1,));   (fc): Sequential(;     (0): Linear(in_features=1568, out_features=128, bias=True);     (1): ReLU();     (2): Linear(in_features=128, out_features=12, bias=True);   ); )",BTCUSDT,100,12,32,0.0005,50,30,0.0017464667482644527,0.0020140536138402625,close
86.56063222576917,179.9544650776089,SimpleFC,"SimpleFC(;   (fc): Sequential(;     (0): Flatten(start_dim=1, end_dim=-1);     (1): Linear(in_features=100, out_features=128, bias=True);     (2): ReLU();     (3): Linear(in_features=128, out_features=12, bias=True);   ); )",BTCUSDT,100,12,32,0.0005,50,30,0.0017322540342249743,0.0020403682938722077,close
79.24884759124653,170.94281713219075,GRUStacked,"GRUStacked(;   (gru): GRU(1, 64, num_layers=2, batch_first=True);   (fc): Linear(in_features=64, out_features=12, bias=True); )",BTCUSDT,100,12,32,0.0005,50,30,0.0016385057465709916,0.001967381448730301,close
88.65649890337532,177.88736864562475,TransformerTimeSeries,"TransformerTimeSeries(;   (input_projection): Linear(in_features=1, out_features=64, bias=True);   (transformer_encoder): TransformerEncoder(;     (layers): ModuleList(;       (0-1): 2 x TransformerEncoderLayer(;         (self_attn): MultiheadAttention(;           (out_proj): NonDynamicallyQuantizab",BTCUSDT,100,12,32,0.0005,50,30,0.0018357322027760716,0.0021459014202211647,close
84.45486472101827,177.77219394546705,ConvFC,"ConvFC(;   (conv): Conv1d(1, 16, kernel_size=(3,), stride=(1,));   (fc): Sequential(;     (0): Linear(in_features=1568, out_features=128, bias=True);     (1): ReLU();     (2): Linear(in_features=128, out_features=12, bias=True);   ); )",BTCUSDT,100,12,32,0.0005,50,30,0.0017984844641932578,0.002026446077731243,close
84.54659589291536,179.625281693456,SimpleFC,"SimpleFC(;   (fc): Sequential(;     (0): Flatten(start_dim=1, end_dim=-1);     (1): Linear(in_features=100, out_features=128, bias=True);     (2): ReLU();     (3): Linear(in_features=128, out_features=12, bias=True);   ); )",BTCUSDT,100,12,32,0.0005,50,30,0.0017703846211250495,0.002038226073935677,close
78.2331949152744,170.3586757460504,GRUStacked,"GRUStacked(;   (gru): GRU(1, 64, num_layers=2, batch_first=True);   (fc): Linear(in_features=64, out_features=12, bias=True); )",BTCUSDT,100,12,32,0.0005,50,30,0.001715339989334763,0.001982363570348111,close
85.22996738578267,176.5109305185483,TransformerTimeSeries,"TransformerTimeSeries(;   (input_projection): Linear(in_features=1, out_features=64, bias=True);   (transformer_encoder): TransformerEncoder(;     (layers): ModuleList(;       (0-1): 2 x TransformerEncoderLayer(;         (self_attn): MultiheadAttention(;           (out_proj): NonDynamicallyQuantizab",BTCUSDT,100,12,32,0.0005,50,30,0.001831268312432052,0.0021065757570536314,close
87.89157383629434,170.22307641583615,ConvFC,"ConvFC(;   (conv): Conv1d(1, 16, kernel_size=(3,), stride=(1,));   (fc): Sequential(;     (0): Linear(in_features=1568, out_features=128, bias=True);     (1): ReLU();     (2): Linear(in_features=128, out_features=12, bias=True);   ); )",BTCUSDT,100,12,32,0.0005,50,15,0.0017608197066229954,0.002257981686483802,close
87.07949978613635,171.95666275459905,SimpleFC,"SimpleFC(;   (fc): Sequential(;     (0): Flatten(start_dim=1, end_dim=-1);     (1): Linear(in_features=100, out_features=128, bias=True);     (2): ReLU();     (3): Linear(in_features=128, out_features=12, bias=True);   ); )",BTCUSDT,100,12,32,0.0005,50,15,0.0017478691622356479,0.0022210922889180306,close
81.7388335878113,163.9134776667608,GRUStacked,"GRUStacked(;   (gru): GRU(1, 64, num_layers=2, batch_first=True);   (fc): Linear(in_features=64, out_features=12, bias=True); )",BTCUSDT,100,12,32,0.0005,50,15,0.0015303436490666858,0.002026496283613834,close
82.01543143029566,163.47416645929266,TransformerTimeSeries,"TransformerTimeSeries(;   (input_projection): Linear(in_features=1, out_features=64, bias=True);   (transformer_encoder): TransformerEncoder(;     (layers): ModuleList(;       (0-1): 2 x TransformerEncoderLayer(;         (self_attn): MultiheadAttention(;           (out_proj): NonDynamicallyQuantizab",BTCUSDT,100,12,32,0.0005,50,15,0.0017771077267994878,0.0021328922355652153,close
85.29040416543195,166.59435519466783,ConvFC,"ConvFC(;   (conv): Conv1d(1, 16, kernel_size=(3,), stride=(1,));   (fc): Sequential(;     (0): Linear(in_features=1568, out_features=128, bias=True);     (1): ReLU();     (2): Linear(in_features=128, out_features=12, bias=True);   ); )",BTCUSDT,100,12,32,0.0005,50,15,0.0018027137397219643,0.0021653152888869657,close
88.16301672611816,175.8121413984195,SimpleFC,"SimpleFC(;   (fc): Sequential(;     (0): Flatten(start_dim=1, end_dim=-1);     (1): Linear(in_features=100, out_features=128, bias=True);     (2): ReLU();     (3): Linear(in_features=128, out_features=12, bias=True);   ); )",BTCUSDT,100,12,32,0.0005,50,15,0.0017434142729419505,0.0022029542410015104,close
79.75927724257579,159.1548491713826,GRUStacked,"GRUStacked(;   (gru): GRU(1, 64, num_layers=2, batch_first=True);   (fc): Linear(in_features=64, out_features=12, bias=True); )",BTCUSDT,100,12,32,0.0005,50,15,0.0015532297753709445,0.002003351172635046,close
82.72467489315169,164.01049631927017,TransformerTimeSeries,"TransformerTimeSeries(;   (input_projection): Linear(in_features=1, out_features=64, bias=True);   (transformer_encoder): TransformerEncoder(;     (layers): ModuleList(;       (0-1): 2 x TransformerEncoderLayer(;         (self_attn): MultiheadAttention(;           (out_proj): NonDynamicallyQuantizab",BTCUSDT,100,12,32,0.0005,50,15,0.0018108693081529464,0.0021214846958419486,close
87.00441859592723,169.48431322589704,ConvFC,"ConvFC(;   (conv): Conv1d(1, 16, kernel_size=(3,), stride=(1,));   (fc): Sequential(;     (0): Linear(in_features=1568, out_features=128, bias=True);     (1): ReLU();     (2): Linear(in_features=128, out_features=12, bias=True);   ); )",BTCUSDT,100,12,32,0.0005,50,15,0.0018018104385269043,0.002226328206717336,close
89.66256114208079,174.94478315204387,SimpleFC,"SimpleFC(;   (fc): Sequential(;     (0): Flatten(start_dim=1, end_dim=-1);     (1): Linear(in_features=100, out_features=128, bias=True);     (2): ReLU();     (3): Linear(in_features=128, out_features=12, bias=True);   ); )",BTCUSDT,100,12,32,0.0005,50,15,0.0018003807828606098,0.0022370386434618296,close
78.83449226230313,159.23378159208457,GRUStacked,"GRUStacked(;   (gru): GRU(1, 64, num_layers=2, batch_first=True);   (fc): Linear(in_features=64, out_features=12, bias=True); )",BTCUSDT,100,12,32,0.0005,50,15,0.0016424151512986465,0.0019481613616805506,close
86.287931372899,170.09185570218335,TransformerTimeSeries,"TransformerTimeSeries(;   (input_projection): Linear(in_features=1, out_features=64, bias=True);   (transformer_encoder): TransformerEncoder(;     (layers): ModuleList(;       (0-1): 2 x TransformerEncoderLayer(;         (self_attn): MultiheadAttention(;           (out_proj): NonDynamicallyQuantizab",BTCUSDT,100,12,32,0.0005,50,15,0.001770321859804714,0.002149827283750016,close
85.09820705732072,167.91212269838923,ConvFC,"ConvFC(;   (conv): Conv1d(1, 16, kernel_size=(3,), stride=(1,));   (fc): Sequential(;     (0): Linear(in_features=1568, out_features=128, bias=True);     (1): ReLU();     (2): Linear(in_features=128, out_features=12, bias=True);   ); )",BTCUSDT,100,12,32,0.0005,50,15,0.0018240399284402307,0.0021645376207761113,close
87.05774466254668,170.32423948504322,SimpleFC,"SimpleFC(;   (fc): Sequential(;     (0): Flatten(start_dim=1, end_dim=-1);     (1): Linear(in_features=100, out_features=128, bias=True);     (2): ReLU();     (3): Linear(in_features=128, out_features=12, bias=True);   ); )",BTCUSDT,100,12,32,0.0005,50,15,0.0018001001802354856,0.002204823325056884,close
77.56393772309717,156.38170342405982,GRUStacked,"GRUStacked(;   (gru): GRU(1, 64, num_layers=2, batch_first=True);   (fc): Linear(in_features=64, out_features=12, bias=True); )",BTCUSDT,100,12,32,0.0005,50,15,0.001660365050048002,0.001970965687578076,close
85.72660041160862,168.27262058169353,TransformerTimeSeries,"TransformerTimeSeries(;   (input_projection): Linear(in_features=1, out_features=64, bias=True);   (transformer_encoder): TransformerEncoder(;     (layers): ModuleList(;       (0-1): 2 x TransformerEncoderLayer(;         (self_attn): MultiheadAttention(;           (out_proj): NonDynamicallyQuantizab",BTCUSDT,100,12,32,0.0005,50,15,0.0018038075294397357,0.0021468537084500705,close
85.86415009914599,179.8947668553201,ConvFC,"ConvFC(;   (conv): Conv1d(1, 16, kernel_size=(3,), stride=(1,));   (fc): Sequential(;     (0): Linear(in_features=1568, out_features=128, bias=True);     (1): ReLU();     (2): Linear(in_features=128, out_features=12, bias=True);   ); )",BTCUSDT,100,12,64,0.001,50,30,0.0017007091573684825,0.002064662200825037,close
87.12425721646082,180.25840821474324,SimpleFC,"SimpleFC(;   (fc): Sequential(;     (0): Flatten(start_dim=1, end_dim=-1);     (1): Linear(in_features=100, out_features=128, bias=True);     (2): ReLU();     (3): Linear(in_features=128, out_features=12, bias=True);   ); )",BTCUSDT,100,12,64,0.001,50,30,0.0017341267889549518,0.0021171367329748903,close
80.22212567020084,172.23951342314413,GRUStacked,"GRUStacked(;   (gru): GRU(1, 64, num_layers=2, batch_first=True);   (fc): Linear(in_features=64, out_features=12, bias=True); )",BTCUSDT,100,12,64,0.001,50,30,0.0015158533883269554,0.002014663245695967,close
81.77180287012223,175.06058773716438,TransformerTimeSeries,"TransformerTimeSeries(;   (input_projection): Linear(in_features=1, out_features=64, bias=True);   (transformer_encoder): TransformerEncoder(;     (layers): ModuleList(;       (0-1): 2 x TransformerEncoderLayer(;         (self_attn): MultiheadAttention(;           (out_proj): NonDynamicallyQuantizab",BTCUSDT,100,12,64,0.001,50,30,0.0017158271630987045,0.002020384499745259,close
85.6480792834502,177.43243884583862,ConvFC,"ConvFC(;   (conv): Conv1d(1, 16, kernel_size=(3,), stride=(1,));   (fc): Sequential(;     (0): Linear(in_features=1568, out_features=128, bias=True);     (1): ReLU();     (2): Linear(in_features=128, out_features=12, bias=True);   ); )",BTCUSDT,100,12,64,0.001,50,30,0.001735653890733095,0.0020731585698538562,close
97.80113739715016,187.7130622576135,SimpleFC,"SimpleFC(;   (fc): Sequential(;     (0): Flatten(start_dim=1, end_dim=-1);     (1): Linear(in_features=100, out_features=128, bias=True);     (2): ReLU();     (3): Linear(in_features=128, out_features=12, bias=True);   ); )",BTCUSDT,100,12,64,0.001,50,30,0.001715149393015182,0.0022306648306019946,close
80.34171631468367,171.7498909284001,GRUStacked,"GRUStacked(;   (gru): GRU(1, 64, num_layers=2, batch_first=True);   (fc): Linear(in_features=64, out_features=12, bias=True); )",BTCUSDT,100,12,64,0.001,50,30,0.0015894611657850076,0.0020228161145162495,close
82.44192519296136,175.00577086543967,TransformerTimeSeries,"TransformerTimeSeries(;   (input_projection): Linear(in_features=1, out_features=64, bias=True);   (transformer_encoder): TransformerEncoder(;     (layers): ModuleList(;       (0-1): 2 x TransformerEncoderLayer(;         (self_attn): MultiheadAttention(;           (out_proj): NonDynamicallyQuantizab",BTCUSDT,100,12,64,0.001,50,30,0.001763789176293208,0.0019970178865779255,close
89.63001474281992,181.49304511278197,ConvFC,"ConvFC(;   (conv): Conv1d(1, 16, kernel_size=(3,), stride=(1,));   (fc): Sequential(;     (0): Linear(in_features=1568, out_features=128, bias=True);     (1): ReLU();     (2): Linear(in_features=128, out_features=12, bias=True);   ); )",BTCUSDT,100,12,64,0.001,50,30,0.0017403074763287292,0.002086425616134831,close
86.25581769681037,180.11343450172353,SimpleFC,"SimpleFC(;   (fc): Sequential(;     (0): Flatten(start_dim=1, end_dim=-1);     (1): Linear(in_features=100, out_features=128, bias=True);     (2): ReLU();     (3): Linear(in_features=128, out_features=12, bias=True);   ); )",BTCUSDT,100,12,64,0.001,50,30,0.0017476606685623516,0.0021061921809408545,close
79.6678408026261,172.5821370645128,GRUStacked,"GRUStacked(;   (gru): GRU(1, 64, num_layers=2, batch_first=True);   (fc): Linear(in_features=64, out_features=12, bias=True); )",BTCUSDT,100,12,64,0.001,50,30,0.0016762104395787207,0.0019791654591895147,close
82.56442245225264,174.8980294785721,TransformerTimeSeries,"TransformerTimeSeries(;   (input_projection): Linear(in_features=1, out_features=64, bias=True);   (transformer_encoder): TransformerEncoder(;     (layers): ModuleList(;       (0-1): 2 x TransformerEncoderLayer(;         (self_attn): MultiheadAttention(;           (out_proj): NonDynamicallyQuantizab",BTCUSDT,100,12,64,0.001,50,30,0.0017589914499250572,0.0020266491237854595,close
83.10680231137839,177.05987949240784,ConvFC,"ConvFC(;   (conv): Conv1d(1, 16, kernel_size=(3,), stride=(1,));   (fc): Sequential(;     (0): Linear(in_features=1568, out_features=128, bias=True);     (1): ReLU();     (2): Linear(in_features=128, out_features=12, bias=True);   ); )",BTCUSDT,100,12,64,0.001,50,30,0.0017369794693650276,0.0020275498933838188,close
83.6971141432377,177.31420388520687,SimpleFC,"SimpleFC(;   (fc): Sequential(;     (0): Flatten(start_dim=1, end_dim=-1);     (1): Linear(in_features=100, out_features=128, bias=True);     (2): ReLU();     (3): Linear(in_features=128, out_features=12, bias=True);   ); )",BTCUSDT,100,12,64,0.001,50,30,0.0017806692212990604,0.0020112302410894337,close
79.61432295471002,171.66190980555072,GRUStacked,"GRUStacked(;   (gru): GRU(1, 64, num_layers=2, batch_first=True);   (fc): Linear(in_features=64, out_features=12, bias=True); )",BTCUSDT,100,12,64,0.001,50,30,0.001685063709426334,0.001982940219602534,close
81.02147272210725,172.32687686825827,TransformerTimeSeries,"TransformerTimeSeries(;   (input_projection): Linear(in_features=1, out_features=64, bias=True);   (transformer_encoder): TransformerEncoder(;     (layers): ModuleList(;       (0-1): 2 x TransformerEncoderLayer(;         (self_attn): MultiheadAttention(;           (out_proj): NonDynamicallyQuantizab",BTCUSDT,100,12,64,0.001,50,30,0.0017576140392474595,0.001991635080902716,close
82.16801005119024,175.14527899111204,ConvFC,"ConvFC(;   (conv): Conv1d(1, 16, kernel_size=(3,), stride=(1,));   (fc): Sequential(;     (0): Linear(in_features=1568, out_features=128, bias=True);     (1): ReLU();     (2): Linear(in_features=128, out_features=12, bias=True);   ); )",BTCUSDT,100,12,64,0.001,50,30,0.0018411990427105484,0.0020288740768961175,close
86.25802297249696,179.50058391382217,SimpleFC,"SimpleFC(;   (fc): Sequential(;     (0): Flatten(start_dim=1, end_dim=-1);     (1): Linear(in_features=100, out_features=128, bias=True);     (2): ReLU();     (3): Linear(in_features=128, out_features=12, bias=True);   ); )",BTCUSDT,100,12,64,0.001,50,30,0.0017828259772630038,0.0020703807094832882,close
79.80170129647406,171.57094157326765,GRUStacked,"GRUStacked(;   (gru): GRU(1, 64, num_layers=2, batch_first=True);   (fc): Linear(in_features=64, out_features=12, bias=True); )",BTCUSDT,100,12,64,0.001,50,30,0.001711988490025688,0.0019426929130632845,close
89.1013430715186,177.48141487337384,TransformerTimeSeries,"TransformerTimeSeries(;   (input_projection): Linear(in_features=1, out_features=64, bias=True);   (transformer_encoder): TransformerEncoder(;     (layers): ModuleList(;       (0-1): 2 x TransformerEncoderLayer(;         (self_attn): MultiheadAttention(;           (out_proj): NonDynamicallyQuantizab",BTCUSDT,100,12,64,0.001,50,30,0.0018891642529348777,0.002112985790720106,close
87.87969401265987,170.06242783102564,ConvFC,"ConvFC(;   (conv): Conv1d(1, 16, kernel_size=(3,), stride=(1,));   (fc): Sequential(;     (0): Linear(in_features=1568, out_features=128, bias=True);     (1): ReLU();     (2): Linear(in_features=128, out_features=12, bias=True);   ); )",BTCUSDT,100,12,64,0.001,50,15,0.0017584323497720328,0.0022642632569850013,close
89.17308917481057,171.94900123467366,SimpleFC,"SimpleFC(;   (fc): Sequential(;     (0): Flatten(start_dim=1, end_dim=-1);     (1): Linear(in_features=100, out_features=128, bias=True);     (2): ReLU();     (3): Linear(in_features=128, out_features=12, bias=True);   ); )",BTCUSDT,100,12,64,0.001,50,15,0.0017580223666275347,0.0022598509339318757,close
83.22954480029013,167.24776043004016,GRUStacked,"GRUStacked(;   (gru): GRU(1, 64, num_layers=2, batch_first=True);   (fc): Linear(in_features=64, out_features=12, bias=True); )",BTCUSDT,100,12,64,0.001,50,15,0.0014197869245180111,0.0020320899275599433,close
85.67879979447746,165.85306933626683,TransformerTimeSeries,"TransformerTimeSeries(;   (input_projection): Linear(in_features=1, out_features=64, bias=True);   (transformer_encoder): TransformerEncoder(;     (layers): ModuleList(;       (0-1): 2 x TransformerEncoderLayer(;         (self_attn): MultiheadAttention(;           (out_proj): NonDynamicallyQuantizab",BTCUSDT,100,12,64,0.001,50,15,0.0017888038990085252,0.002116589243878084,close
87.39444574798877,169.04252585848556,ConvFC,"ConvFC(;   (conv): Conv1d(1, 16, kernel_size=(3,), stride=(1,));   (fc): Sequential(;     (0): Linear(in_features=1568, out_features=128, bias=True);     (1): ReLU();     (2): Linear(in_features=128, out_features=12, bias=True);   ); )",BTCUSDT,100,12,64,0.001,50,15,0.0017915118980893433,0.002230523095369465,close
89.82469650181838,178.00863988115114,SimpleFC,"SimpleFC(;   (fc): Sequential(;     (0): Flatten(start_dim=1, end_dim=-1);     (1): Linear(in_features=100, out_features=128, bias=True);     (2): ReLU();     (3): Linear(in_features=128, out_features=12, bias=True);   ); )",BTCUSDT,100,12,64,0.001,50,15,0.0017408528719710591,0.0022500451503193303,close
80.59013205730977,160.6757298853179,GRUStacked,"GRUStacked(;   (gru): GRU(1, 64, num_layers=2, batch_first=True);   (fc): Linear(in_features=64, out_features=12, bias=True); )",BTCUSDT,100,12,64,0.001,50,15,0.0014759921888783778,0.0020504586514173266,close
82.31894291560978,164.2044423323063,TransformerTimeSeries,"TransformerTimeSeries(;   (input_projection): Linear(in_features=1, out_features=64, bias=True);   (transformer_encoder): TransformerEncoder(;     (layers): ModuleList(;       (0-1): 2 x TransformerEncoderLayer(;         (self_attn): MultiheadAttention(;           (out_proj): NonDynamicallyQuantizab",BTCUSDT,100,12,64,0.001,50,15,0.0017991523733151763,0.0021072156871567763,close
86.68439955027337,168.37435236756366,ConvFC,"ConvFC(;   (conv): Conv1d(1, 16, kernel_size=(3,), stride=(1,));   (fc): Sequential(;     (0): Linear(in_features=1568, out_features=128, bias=True);     (1): ReLU();     (2): Linear(in_features=128, out_features=12, bias=True);   ); )",BTCUSDT,100,12,64,0.001,50,15,0.0017689886409980953,0.002267122671490643,close
89.75308024699747,174.66741953870428,SimpleFC,"SimpleFC(;   (fc): Sequential(;     (0): Flatten(start_dim=1, end_dim=-1);     (1): Linear(in_features=100, out_features=128, bias=True);     (2): ReLU();     (3): Linear(in_features=128, out_features=12, bias=True);   ); )",BTCUSDT,100,12,64,0.001,50,15,0.0017801320285853177,0.002236752411753281,close
80.05461116336018,160.85926328488162,GRUStacked,"GRUStacked(;   (gru): GRU(1, 64, num_layers=2, batch_first=True);   (fc): Linear(in_features=64, out_features=12, bias=True); )",BTCUSDT,100,12,64,0.001,50,15,0.0016152124602184087,0.001974933682029824,close
82.90378597943366,163.79293176418716,TransformerTimeSeries,"TransformerTimeSeries(;   (input_projection): Linear(in_features=1, out_features=64, bias=True);   (transformer_encoder): TransformerEncoder(;     (layers): ModuleList(;       (0-1): 2 x TransformerEncoderLayer(;         (self_attn): MultiheadAttention(;           (out_proj): NonDynamicallyQuantizab",BTCUSDT,100,12,64,0.001,50,15,0.0018184544306678956,0.0021469073526444284,close
87.38145788499405,168.82597353068317,ConvFC,"ConvFC(;   (conv): Conv1d(1, 16, kernel_size=(3,), stride=(1,));   (fc): Sequential(;     (0): Linear(in_features=1568, out_features=128, bias=True);     (1): ReLU();     (2): Linear(in_features=128, out_features=12, bias=True);   ); )",BTCUSDT,100,12,64,0.001,50,15,0.001780087736228274,0.0022208015011243322,close
87.76862079490873,169.6113877872465,SimpleFC,"SimpleFC(;   (fc): Sequential(;     (0): Flatten(start_dim=1, end_dim=-1);     (1): Linear(in_features=100, out_features=128, bias=True);     (2): ReLU();     (3): Linear(in_features=128, out_features=12, bias=True);   ); )",BTCUSDT,100,12,64,0.001,50,15,0.001781080510283326,0.0022395980691454027,close
81.34957859426707,160.12186200132143,GRUStacked,"GRUStacked(;   (gru): GRU(1, 64, num_layers=2, batch_first=True);   (fc): Linear(in_features=64, out_features=12, bias=True); )",BTCUSDT,100,12,64,0.001,50,15,0.0015902831965695877,0.0020574372533679565,close
84.04982529609113,164.8203707131684,TransformerTimeSeries,"TransformerTimeSeries(;   (input_projection): Linear(in_features=1, out_features=64, bias=True);   (transformer_encoder): TransformerEncoder(;     (layers): ModuleList(;       (0-1): 2 x TransformerEncoderLayer(;         (self_attn): MultiheadAttention(;           (out_proj): NonDynamicallyQuantizab",BTCUSDT,100,12,64,0.001,50,15,0.0017865230456289717,0.002162528725662651,close
85.95295250142983,166.66070812238502,ConvFC,"ConvFC(;   (conv): Conv1d(1, 16, kernel_size=(3,), stride=(1,));   (fc): Sequential(;     (0): Linear(in_features=1568, out_features=128, bias=True);     (1): ReLU();     (2): Linear(in_features=128, out_features=12, bias=True);   ); )",BTCUSDT,100,12,64,0.001,50,15,0.0018449881765129114,0.0021995675095170288,close
85.78388829916986,169.38607236214267,SimpleFC,"SimpleFC(;   (fc): Sequential(;     (0): Flatten(start_dim=1, end_dim=-1);     (1): Linear(in_features=100, out_features=128, bias=True);     (2): ReLU();     (3): Linear(in_features=128, out_features=12, bias=True);   ); )",BTCUSDT,100,12,64,0.001,50,15,0.0017913826138441628,0.002189844649044374,close
78.57725584315351,158.38927011422217,GRUStacked,"GRUStacked(;   (gru): GRU(1, 64, num_layers=2, batch_first=True);   (fc): Linear(in_features=64, out_features=12, bias=True); )",BTCUSDT,100,12,64,0.001,50,15,0.0016439605988699442,0.0019606557037233677,close
86.51804172018079,169.36791516420206,TransformerTimeSeries,"TransformerTimeSeries(;   (input_projection): Linear(in_features=1, out_features=64, bias=True);   (transformer_encoder): TransformerEncoder(;     (layers): ModuleList(;       (0-1): 2 x TransformerEncoderLayer(;         (self_attn): MultiheadAttention(;           (out_proj): NonDynamicallyQuantizab",BTCUSDT,100,12,64,0.001,50,15,0.0018620357836886669,0.002201581123545946,close
87.06289581130005,168.037428945162,ConvFC,"ConvFC(;   (conv): Conv1d(1, 16, kernel_size=(3,), stride=(1,));   (fc): Sequential(;     (0): Linear(in_features=1568, out_features=128, bias=True);     (1): ReLU();     (2): Linear(in_features=128, out_features=12, bias=True);   ); )",BTCUSDT,100,12,64,0.001,50,15,0.0018584851503872985,0.00219442081569631,close
89.42830854186532,174.1598833978492,SimpleFC,"SimpleFC(;   (fc): Sequential(;     (0): Flatten(start_dim=1, end_dim=-1);     (1): Linear(in_features=100, out_features=128, bias=True);     (2): ReLU();     (3): Linear(in_features=128, out_features=12, bias=True);   ); )",BTCUSDT,100,12,64,0.001,50,15,0.001792861970888249,0.002251150452077461,close
79.36656881589577,159.74366519313168,GRUStacked,"GRUStacked(;   (gru): GRU(1, 64, num_layers=2, batch_first=True);   (fc): Linear(in_features=64, out_features=12, bias=True); )",BTCUSDT,100,12,64,0.001,50,15,0.0016503735832373045,0.0019674878878882243,close
83.14442087465163,163.68804956911794,TransformerTimeSeries,"TransformerTimeSeries(;   (input_projection): Linear(in_features=1, out_features=64, bias=True);   (transformer_encoder): TransformerEncoder(;     (layers): ModuleList(;       (0-1): 2 x TransformerEncoderLayer(;         (self_attn): MultiheadAttention(;           (out_proj): NonDynamicallyQuantizab",BTCUSDT,100,12,64,0.001,50,15,0.0018980587978428293,0.0021619064518833163,close
83.90292663425983,179.89882649801916,ConvFC,"ConvFC(;   (conv): Conv1d(1, 16, kernel_size=(3,), stride=(1,));   (fc): Sequential(;     (0): Linear(in_features=1568, out_features=128, bias=True);     (1): ReLU();     (2): Linear(in_features=128, out_features=12, bias=True);   ); )",BTCUSDT,100,12,64,0.0005,50,30,0.001669549948372335,0.0020244705442542766,close
83.06518542425,178.03899411294512,SimpleFC,"SimpleFC(;   (fc): Sequential(;     (0): Flatten(start_dim=1, end_dim=-1);     (1): Linear(in_features=100, out_features=128, bias=True);     (2): ReLU();     (3): Linear(in_features=128, out_features=12, bias=True);   ); )",BTCUSDT,100,12,64,0.0005,50,30,0.00168815605337278,0.002047961168983785,close
80.75331805106693,173.35014471970462,GRUStacked,"GRUStacked(;   (gru): GRU(1, 64, num_layers=2, batch_first=True);   (fc): Linear(in_features=64, out_features=12, bias=True); )",BTCUSDT,100,12,64,0.0005,50,30,0.0014088665829385045,0.002034474301190174,close
81.40675539543817,176.71310272373523,TransformerTimeSeries,"TransformerTimeSeries(;   (input_projection): Linear(in_features=1, out_features=64, bias=True);   (transformer_encoder): TransformerEncoder(;     (layers): ModuleList(;       (0-1): 2 x TransformerEncoderLayer(;         (self_attn): MultiheadAttention(;           (out_proj): NonDynamicallyQuantizab",BTCUSDT,100,12,64,0.0005,50,30,0.0016162396698937188,0.0020656315968338185,close
82.03126173856016,176.52280444580006,ConvFC,"ConvFC(;   (conv): Conv1d(1, 16, kernel_size=(3,), stride=(1,));   (fc): Sequential(;     (0): Linear(in_features=1568, out_features=128, bias=True);     (1): ReLU();     (2): Linear(in_features=128, out_features=12, bias=True);   ); )",BTCUSDT,100,12,64,0.0005,50,30,0.0017048467780413573,0.0020107407776491517,close
84.07051141343487,180.30219022950132,SimpleFC,"SimpleFC(;   (fc): Sequential(;     (0): Flatten(start_dim=1, end_dim=-1);     (1): Linear(in_features=100, out_features=128, bias=True);     (2): ReLU();     (3): Linear(in_features=128, out_features=12, bias=True);   ); )",BTCUSDT,100,12,64,0.0005,50,30,0.0016870428580472651,0.0020372502892846154,close
82.14363135672188,176.4851756259951,GRUStacked,"GRUStacked(;   (gru): GRU(1, 64, num_layers=2, batch_first=True);   (fc): Linear(in_features=64, out_features=12, bias=True); )",BTCUSDT,100,12,64,0.0005,50,30,0.0014578052417155412,0.002090233869010983,close
80.54537637505456,174.13080294444487,TransformerTimeSeries,"TransformerTimeSeries(;   (input_projection): Linear(in_features=1, out_features=64, bias=True);   (transformer_encoder): TransformerEncoder(;     (layers): ModuleList(;       (0-1): 2 x TransformerEncoderLayer(;         (self_attn): MultiheadAttention(;           (out_proj): NonDynamicallyQuantizab",BTCUSDT,100,12,64,0.0005,50,30,0.0016414918274866527,0.0020517200934683797,close
84.03878563869436,180.14526166097332,ConvFC,"ConvFC(;   (conv): Conv1d(1, 16, kernel_size=(3,), stride=(1,));   (fc): Sequential(;     (0): Linear(in_features=1568, out_features=128, bias=True);     (1): ReLU();     (2): Linear(in_features=128, out_features=12, bias=True);   ); )",BTCUSDT,100,12,64,0.0005,50,30,0.0016529251679932042,0.0020704602051901987,close
86.3726271605871,180.0206664820382,SimpleFC,"SimpleFC(;   (fc): Sequential(;     (0): Flatten(start_dim=1, end_dim=-1);     (1): Linear(in_features=100, out_features=128, bias=True);     (2): ReLU();     (3): Linear(in_features=128, out_features=12, bias=True);   ); )",BTCUSDT,100,12,64,0.0005,50,30,0.0016895894876863956,0.002053061410771224,close
79.65985737548742,172.48739516584376,GRUStacked,"GRUStacked(;   (gru): GRU(1, 64, num_layers=2, batch_first=True);   (fc): Linear(in_features=64, out_features=12, bias=True); )",BTCUSDT,100,12,64,0.0005,50,30,0.0016332833104050208,0.0019913174257392137,close
81.91929367662372,174.59690560313086,TransformerTimeSeries,"TransformerTimeSeries(;   (input_projection): Linear(in_features=1, out_features=64, bias=True);   (transformer_encoder): TransformerEncoder(;     (layers): ModuleList(;       (0-1): 2 x TransformerEncoderLayer(;         (self_attn): MultiheadAttention(;           (out_proj): NonDynamicallyQuantizab",BTCUSDT,100,12,64,0.0005,50,30,0.0016735956834217811,0.002037612132217447,close
83.14548184834597,178.41200069821488,ConvFC,"ConvFC(;   (conv): Conv1d(1, 16, kernel_size=(3,), stride=(1,));   (fc): Sequential(;     (0): Linear(in_features=1568, out_features=128, bias=True);     (1): ReLU();     (2): Linear(in_features=128, out_features=12, bias=True);   ); )",BTCUSDT,100,12,64,0.0005,50,30,0.001679258529494155,0.0020459843719330875,close
86.12612925902356,179.80277647825278,SimpleFC,"SimpleFC(;   (fc): Sequential(;     (0): Flatten(start_dim=1, end_dim=-1);     (1): Linear(in_features=100, out_features=128, bias=True);     (2): ReLU();     (3): Linear(in_features=128, out_features=12, bias=True);   ); )",BTCUSDT,100,12,64,0.0005,50,30,0.0016992601256374275,0.0020602035342804537,close
78.96034166874948,171.21732672052963,GRUStacked,"GRUStacked(;   (gru): GRU(1, 64, num_layers=2, batch_first=True);   (fc): Linear(in_features=64, out_features=12, bias=True); )",BTCUSDT,100,12,64,0.0005,50,30,0.001584850972483512,0.0020003794589257633,close
80.08412715650094,172.52230270956363,TransformerTimeSeries,"TransformerTimeSeries(;   (input_projection): Linear(in_features=1, out_features=64, bias=True);   (transformer_encoder): TransformerEncoder(;     (layers): ModuleList(;       (0-1): 2 x TransformerEncoderLayer(;         (self_attn): MultiheadAttention(;           (out_proj): NonDynamicallyQuantizab",BTCUSDT,100,12,64,0.0005,50,30,0.0016847091999392962,0.002033491246275725,close
82.97755729736114,176.37852337164531,ConvFC,"ConvFC(;   (conv): Conv1d(1, 16, kernel_size=(3,), stride=(1,));   (fc): Sequential(;     (0): Linear(in_features=1568, out_features=128, bias=True);     (1): ReLU();     (2): Linear(in_features=128, out_features=12, bias=True);   ); )",BTCUSDT,100,12,64,0.0005,50,30,0.0017268304419716556,0.002018316331359441,close
82.58075299318719,176.98692400889908,SimpleFC,"SimpleFC(;   (fc): Sequential(;     (0): Flatten(start_dim=1, end_dim=-1);     (1): Linear(in_features=100, out_features=128, bias=True);     (2): ReLU();     (3): Linear(in_features=128, out_features=12, bias=True);   ); )",BTCUSDT,100,12,64,0.0005,50,30,0.001718503610832701,0.002012572408519384,close
81.60542404111281,175.0759423006865,GRUStacked,"GRUStacked(;   (gru): GRU(1, 64, num_layers=2, batch_first=True);   (fc): Linear(in_features=64, out_features=12, bias=True); )",BTCUSDT,100,12,64,0.0005,50,30,0.0016373715866312374,0.002058017115274012,close
80.80926433684591,178.95503400338984,TransformerTimeSeries,"TransformerTimeSeries(;   (input_projection): Linear(in_features=1, out_features=64, bias=True);   (transformer_encoder): TransformerEncoder(;     (layers): ModuleList(;       (0-1): 2 x TransformerEncoderLayer(;         (self_attn): MultiheadAttention(;           (out_proj): NonDynamicallyQuantizab",BTCUSDT,100,12,64,0.0005,50,30,0.0017180824452699436,0.002102139212091561,close
82.01802435700515,174.7870847251464,ConvFC,"ConvFC(;   (conv): Conv1d(1, 16, kernel_size=(3,), stride=(1,));   (fc): Sequential(;     (0): Linear(in_features=1568, out_features=128, bias=True);     (1): ReLU();     (2): Linear(in_features=128, out_features=12, bias=True);   ); )",BTCUSDT,100,12,64,0.0005,50,30,0.001738726548672959,0.002011919450234163,close
84.15464117035098,178.92269334651402,SimpleFC,"SimpleFC(;   (fc): Sequential(;     (0): Flatten(start_dim=1, end_dim=-1);     (1): Linear(in_features=100, out_features=128, bias=True);     (2): ReLU();     (3): Linear(in_features=128, out_features=12, bias=True);   ); )",BTCUSDT,100,12,64,0.0005,50,30,0.001720038538147786,0.0020418945598137082,close
79.47634121144081,173.32583318858084,GRUStacked,"GRUStacked(;   (gru): GRU(1, 64, num_layers=2, batch_first=True);   (fc): Linear(in_features=64, out_features=12, bias=True); )",BTCUSDT,100,12,64,0.0005,50,30,0.001638843088196169,0.001961264316417763,close
78.83058624932778,171.96015529908402,TransformerTimeSeries,"TransformerTimeSeries(;   (input_projection): Linear(in_features=1, out_features=64, bias=True);   (transformer_encoder): TransformerEncoder(;     (layers): ModuleList(;       (0-1): 2 x TransformerEncoderLayer(;         (self_attn): MultiheadAttention(;           (out_proj): NonDynamicallyQuantizab",BTCUSDT,100,12,64,0.0005,50,30,0.0017334138953787452,0.0019978477404051314,close
84.62893678820662,177.5154515513725,ConvFC,"ConvFC(;   (conv): Conv1d(1, 16, kernel_size=(3,), stride=(1,));   (fc): Sequential(;     (0): Linear(in_features=1568, out_features=128, bias=True);     (1): ReLU();     (2): Linear(in_features=128, out_features=12, bias=True);   ); )",BTCUSDT,100,12,64,0.0005,50,30,0.001785541845756086,0.0020719756487422906,close
83.09071207236205,177.289634332648,SimpleFC,"SimpleFC(;   (fc): Sequential(;     (0): Flatten(start_dim=1, end_dim=-1);     (1): Linear(in_features=100, out_features=128, bias=True);     (2): ReLU();     (3): Linear(in_features=128, out_features=12, bias=True);   ); )",BTCUSDT,100,12,64,0.0005,50,30,0.0017601415596069417,0.0020255164937414273,close
80.0863067862529,172.5976346376576,GRUStacked,"GRUStacked(;   (gru): GRU(1, 64, num_layers=2, batch_first=True);   (fc): Linear(in_features=64, out_features=12, bias=True); )",BTCUSDT,100,12,64,0.0005,50,30,0.0017592705626855764,0.0019908282483459996,close
89.75831101331181,180.5150850430613,TransformerTimeSeries,"TransformerTimeSeries(;   (input_projection): Linear(in_features=1, out_features=64, bias=True);   (transformer_encoder): TransformerEncoder(;     (layers): ModuleList(;       (0-1): 2 x TransformerEncoderLayer(;         (self_attn): MultiheadAttention(;           (out_proj): NonDynamicallyQuantizab",BTCUSDT,100,12,64,0.0005,50,30,0.0019507042059817943,0.0020882674038200976,close
86.51345568382173,169.60141873299776,ConvFC,"ConvFC(;   (conv): Conv1d(1, 16, kernel_size=(3,), stride=(1,));   (fc): Sequential(;     (0): Linear(in_features=1568, out_features=128, bias=True);     (1): ReLU();     (2): Linear(in_features=128, out_features=12, bias=True);   ); )",BTCUSDT,100,12,64,0.0005,50,15,0.0017032915774930206,0.0022634992471295477,close
87.0640286638885,171.38858513090676,SimpleFC,"SimpleFC(;   (fc): Sequential(;     (0): Flatten(start_dim=1, end_dim=-1);     (1): Linear(in_features=100, out_features=128, bias=True);     (2): ReLU();     (3): Linear(in_features=128, out_features=12, bias=True);   ); )",BTCUSDT,100,12,64,0.0005,50,15,0.0017189625199514969,0.002241286631349636,close
86.3065328090176,175.58294759821902,GRUStacked,"GRUStacked(;   (gru): GRU(1, 64, num_layers=2, batch_first=True);   (fc): Linear(in_features=64, out_features=12, bias=True); )",BTCUSDT,100,12,64,0.0005,50,15,0.0012536339887941003,0.0022476496683053473,close
82.00747024274608,165.04919800295008,TransformerTimeSeries,"TransformerTimeSeries(;   (input_projection): Linear(in_features=1, out_features=64, bias=True);   (transformer_encoder): TransformerEncoder(;     (layers): ModuleList(;       (0-1): 2 x TransformerEncoderLayer(;         (self_attn): MultiheadAttention(;           (out_proj): NonDynamicallyQuantizab",BTCUSDT,100,12,64,0.0005,50,15,0.0016763949628142622,0.0021458322752845264,close
85.56162391600536,166.79945479568786,ConvFC,"ConvFC(;   (conv): Conv1d(1, 16, kernel_size=(3,), stride=(1,));   (fc): Sequential(;     (0): Linear(in_features=1568, out_features=128, bias=True);     (1): ReLU();     (2): Linear(in_features=128, out_features=12, bias=True);   ); )",BTCUSDT,100,12,64,0.0005,50,15,0.0017565828753636566,0.002203665628038338,close
89.94941655077896,177.1726103713598,SimpleFC,"SimpleFC(;   (fc): Sequential(;     (0): Flatten(start_dim=1, end_dim=-1);     (1): Linear(in_features=100, out_features=128, bias=True);     (2): ReLU();     (3): Linear(in_features=128, out_features=12, bias=True);   ); )",BTCUSDT,100,12,64,0.0005,50,15,0.0016877146214834416,0.0022678489729048962,close
81.34786348471967,160.18659821657232,GRUStacked,"GRUStacked(;   (gru): GRU(1, 64, num_layers=2, batch_first=True);   (fc): Linear(in_features=64, out_features=12, bias=True); )",BTCUSDT,100,12,64,0.0005,50,15,0.0013185180867389765,0.002173353430864532,close
85.62100483666626,167.4130933748526,TransformerTimeSeries,"TransformerTimeSeries(;   (input_projection): Linear(in_features=1, out_features=64, bias=True);   (transformer_encoder): TransformerEncoder(;     (layers): ModuleList(;       (0-1): 2 x TransformerEncoderLayer(;         (self_attn): MultiheadAttention(;           (out_proj): NonDynamicallyQuantizab",BTCUSDT,100,12,64,0.0005,50,15,0.0016912535660637005,0.002144033020246405,close
90.77601015525835,175.45927145462167,ConvFC,"ConvFC(;   (conv): Conv1d(1, 16, kernel_size=(3,), stride=(1,));   (fc): Sequential(;     (0): Linear(in_features=1568, out_features=128, bias=True);     (1): ReLU();     (2): Linear(in_features=128, out_features=12, bias=True);   ); )",BTCUSDT,100,12,64,0.0005,50,15,0.0016926085953766785,0.002330759364452465,close
89.39029707124223,176.24210273106758,SimpleFC,"SimpleFC(;   (fc): Sequential(;     (0): Flatten(start_dim=1, end_dim=-1);     (1): Linear(in_features=100, out_features=128, bias=True);     (2): ReLU();     (3): Linear(in_features=128, out_features=12, bias=True);   ); )",BTCUSDT,100,12,64,0.0005,50,15,0.0017143993346858642,0.002230743341066915,close
79.2509849615424,160.24409598364147,GRUStacked,"GRUStacked(;   (gru): GRU(1, 64, num_layers=2, batch_first=True);   (fc): Linear(in_features=64, out_features=12, bias=True); )",BTCUSDT,100,12,64,0.0005,50,15,0.001520039543090452,0.0019811800262634306,close
84.81884896680701,166.72106259397347,TransformerTimeSeries,"TransformerTimeSeries(;   (input_projection): Linear(in_features=1, out_features=64, bias=True);   (transformer_encoder): TransformerEncoder(;     (layers): ModuleList(;       (0-1): 2 x TransformerEncoderLayer(;         (self_attn): MultiheadAttention(;           (out_proj): NonDynamicallyQuantizab",BTCUSDT,100,12,64,0.0005,50,15,0.0016806788148648465,0.002147441823401034,close
86.20666457748655,169.54037037074258,ConvFC,"ConvFC(;   (conv): Conv1d(1, 16, kernel_size=(3,), stride=(1,));   (fc): Sequential(;     (0): Linear(in_features=1568, out_features=128, bias=True);     (1): ReLU();     (2): Linear(in_features=128, out_features=12, bias=True);   ); )",BTCUSDT,100,12,64,0.0005,50,15,0.0017231914669272729,0.0022301274331529503,close
88.65949834430472,173.8742039013969,SimpleFC,"SimpleFC(;   (fc): Sequential(;     (0): Flatten(start_dim=1, end_dim=-1);     (1): Linear(in_features=100, out_features=128, bias=True);     (2): ReLU();     (3): Linear(in_features=128, out_features=12, bias=True);   ); )",BTCUSDT,100,12,64,0.0005,50,15,0.001697977745393866,0.0022699531400576234,close
80.20108082618991,157.6260583240126,GRUStacked,"GRUStacked(;   (gru): GRU(1, 64, num_layers=2, batch_first=True);   (fc): Linear(in_features=64, out_features=12, bias=True); )",BTCUSDT,100,12,64,0.0005,50,15,0.0013829855694989987,0.002115128269620973,close
85.46470987381491,166.76256208067278,TransformerTimeSeries,"TransformerTimeSeries(;   (input_projection): Linear(in_features=1, out_features=64, bias=True);   (transformer_encoder): TransformerEncoder(;     (layers): ModuleList(;       (0-1): 2 x TransformerEncoderLayer(;         (self_attn): MultiheadAttention(;           (out_proj): NonDynamicallyQuantizab",BTCUSDT,100,12,64,0.0005,50,15,0.0016658969891969171,0.0022005882340675707,close
85.67846054902395,166.7914189343346,ConvFC,"ConvFC(;   (conv): Conv1d(1, 16, kernel_size=(3,), stride=(1,));   (fc): Sequential(;     (0): Linear(in_features=1568, out_features=128, bias=True);     (1): ReLU();     (2): Linear(in_features=128, out_features=12, bias=True);   ); )",BTCUSDT,100,12,64,0.0005,50,15,0.0017808576136273658,0.002221974758920597,close
88.25560425574946,173.04535739626112,SimpleFC,"SimpleFC(;   (fc): Sequential(;     (0): Flatten(start_dim=1, end_dim=-1);     (1): Linear(in_features=100, out_features=128, bias=True);     (2): ReLU();     (3): Linear(in_features=128, out_features=12, bias=True);   ); )",BTCUSDT,100,12,64,0.0005,50,15,0.0017183078016986143,0.002214126038907213,close
81.1640582862406,160.95132462496755,GRUStacked,"GRUStacked(;   (gru): GRU(1, 64, num_layers=2, batch_first=True);   (fc): Linear(in_features=64, out_features=12, bias=True); )",BTCUSDT,100,12,64,0.0005,50,15,0.0015258215254333014,0.0020640765178716936,close
85.72709960227719,166.6871289751482,TransformerTimeSeries,"TransformerTimeSeries(;   (input_projection): Linear(in_features=1, out_features=64, bias=True);   (transformer_encoder): TransformerEncoder(;     (layers): ModuleList(;       (0-1): 2 x TransformerEncoderLayer(;         (self_attn): MultiheadAttention(;           (out_proj): NonDynamicallyQuantizab",BTCUSDT,100,12,64,0.0005,50,15,0.0017318389404358135,0.0021843365522929365,close
86.65335470431091,171.14801455314398,ConvFC,"ConvFC(;   (conv): Conv1d(1, 16, kernel_size=(3,), stride=(1,));   (fc): Sequential(;     (0): Linear(in_features=1568, out_features=128, bias=True);     (1): ReLU();     (2): Linear(in_features=128, out_features=12, bias=True);   ); )",BTCUSDT,100,12,64,0.0005,50,15,0.0017788658592152436,0.0022171379375195014,close
88.70252117786264,173.81110488563843,SimpleFC,"SimpleFC(;   (fc): Sequential(;     (0): Flatten(start_dim=1, end_dim=-1);     (1): Linear(in_features=100, out_features=128, bias=True);     (2): ReLU();     (3): Linear(in_features=128, out_features=12, bias=True);   ); )",BTCUSDT,100,12,64,0.0005,50,15,0.0017127641268292971,0.0022668436061082506,close
79.4842814460956,160.4619472301354,GRUStacked,"GRUStacked(;   (gru): GRU(1, 64, num_layers=2, batch_first=True);   (fc): Linear(in_features=64, out_features=12, bias=True); )",BTCUSDT,100,12,64,0.0005,50,15,0.0015788097551765767,0.001982370539256799,close
82.80072359180731,163.4927547277419,TransformerTimeSeries,"TransformerTimeSeries(;   (input_projection): Linear(in_features=1, out_features=64, bias=True);   (transformer_encoder): TransformerEncoder(;     (layers): ModuleList(;       (0-1): 2 x TransformerEncoderLayer(;         (self_attn): MultiheadAttention(;           (out_proj): NonDynamicallyQuantizab",BTCUSDT,100,12,64,0.0005,50,15,0.0017644688849553303,0.002110581687434491,close
86.24552535834135,165.93900591678252,ConvFC,"ConvFC(;   (conv): Conv1d(1, 16, kernel_size=(3,), stride=(1,));   (fc): Sequential(;     (0): Linear(in_features=1568, out_features=128, bias=True);     (1): ReLU();     (2): Linear(in_features=128, out_features=12, bias=True);   ); )",BTCUSDT,100,12,64,0.0005,50,15,0.001815611338073615,0.0021932204090877646,close
87.23263947900739,169.9574787187255,SimpleFC,"SimpleFC(;   (fc): Sequential(;     (0): Flatten(start_dim=1, end_dim=-1);     (1): Linear(in_features=100, out_features=128, bias=True);     (2): ReLU();     (3): Linear(in_features=128, out_features=12, bias=True);   ); )",BTCUSDT,100,12,64,0.0005,50,15,0.0017977786293209867,0.0022157263172428226,close
79.6288775805145,159.68606374319054,GRUStacked,"GRUStacked(;   (gru): GRU(1, 64, num_layers=2, batch_first=True);   (fc): Linear(in_features=64, out_features=12, bias=True); )",BTCUSDT,100,12,64,0.0005,50,15,0.0016198949546608128,0.0019900346150090874,close
82.86003131931793,165.03757417946738,TransformerTimeSeries,"TransformerTimeSeries(;   (input_projection): Linear(in_features=1, out_features=64, bias=True);   (transformer_encoder): TransformerEncoder(;     (layers): ModuleList(;       (0-1): 2 x TransformerEncoderLayer(;         (self_attn): MultiheadAttention(;           (out_proj): NonDynamicallyQuantizab",BTCUSDT,100,12,64,0.0005,50,15,0.0019039918540175928,0.002155245448646005,close
88.26972729655093,170.2002223362396,ConvFC,"ConvFC(;   (conv): Conv1d(1, 16, kernel_size=(3,), stride=(1,));   (fc): Sequential(;     (0): Linear(in_features=1568, out_features=128, bias=True);     (1): ReLU();     (2): Linear(in_features=128, out_features=12, bias=True);   ); )",BTCUSDT,100,12,64,0.0005,50,15,0.0018657618140787734,0.0022065441845691256,close
88.66704469785024,170.74260403744623,SimpleFC,"SimpleFC(;   (fc): Sequential(;     (0): Flatten(start_dim=1, end_dim=-1);     (1): Linear(in_features=100, out_features=128, bias=True);     (2): ReLU();     (3): Linear(in_features=128, out_features=12, bias=True);   ); )",BTCUSDT,100,12,64,0.0005,50,15,0.0018231421378498644,0.0022319765430526438,close
79.23694729952355,158.7628851999061,GRUStacked,"GRUStacked(;   (gru): GRU(1, 64, num_layers=2, batch_first=True);   (fc): Linear(in_features=64, out_features=12, bias=True); )",BTCUSDT,100,12,64,0.0005,50,15,0.001642656046817327,0.0019832509381422134,close
85.11066550087838,165.61604932821768,TransformerTimeSeries,"TransformerTimeSeries(;   (input_projection): Linear(in_features=1, out_features=64, bias=True);   (transformer_encoder): TransformerEncoder(;     (layers): ModuleList(;       (0-1): 2 x TransformerEncoderLayer(;         (self_attn): MultiheadAttention(;           (out_proj): NonDynamicallyQuantizab",BTCUSDT,100,12,64,0.0005,50,15,0.0019471832144327093,0.002189779643037982,close
68.00823466513383,132.385531723419,ConvFC,"ConvFC(;   (conv): Conv1d(1, 16, kernel_size=(3,), stride=(1,));   (fc): Sequential(;     (0): Linear(in_features=1568, out_features=128, bias=True);     (1): ReLU();     (2): Linear(in_features=128, out_features=24, bias=True);   ); )",BTCUSDT,100,24,32,0.001,50,30,0.0016625131754734851,0.0019780121682378225,close
70.06216655307561,135.24261078148507,SimpleFC,"SimpleFC(;   (fc): Sequential(;     (0): Flatten(start_dim=1, end_dim=-1);     (1): Linear(in_features=100, out_features=128, bias=True);     (2): ReLU();     (3): Linear(in_features=128, out_features=24, bias=True);   ); )",BTCUSDT,100,24,32,0.001,50,30,0.0017093223195705836,0.0019976205264404727,close
67.32363195874318,129.3066042386388,GRUStacked,"GRUStacked(;   (gru): GRU(1, 64, num_layers=2, batch_first=True);   (fc): Linear(in_features=64, out_features=24, bias=True); )",BTCUSDT,100,24,32,0.001,50,30,0.0014160573246007353,0.002051270752505496,close
74.57200076587286,136.1399354827555,TransformerTimeSeries,"TransformerTimeSeries(;   (input_projection): Linear(in_features=1, out_features=64, bias=True);   (transformer_encoder): TransformerEncoder(;     (layers): ModuleList(;       (0-1): 2 x TransformerEncoderLayer(;         (self_attn): MultiheadAttention(;           (out_proj): NonDynamicallyQuantizab",BTCUSDT,100,24,32,0.001,50,30,0.0017223702932614641,0.002060571332900939,close
76.0645276825614,169.68045085572666,ConvFC,"ConvFC(;   (conv): Conv1d(1, 16, kernel_size=(3,), stride=(1,));   (fc): Sequential(;     (0): Linear(in_features=1568, out_features=128, bias=True);     (1): ReLU();     (2): Linear(in_features=128, out_features=24, bias=True);   ); )",BTCUSDT,100,24,32,0.001,50,15,0.002028881535971954,0.0024203108180915218,close
76.48516967740613,170.91007595592166,SimpleFC,"SimpleFC(;   (fc): Sequential(;     (0): Flatten(start_dim=1, end_dim=-1);     (1): Linear(in_features=100, out_features=128, bias=True);     (2): ReLU();     (3): Linear(in_features=128, out_features=24, bias=True);   ); )",BTCUSDT,100,24,32,0.001,50,15,0.0020942573085080195,0.0025640881650681566,close
74.29947041184683,164.3583231132305,GRUStacked,"GRUStacked(;   (gru): GRU(1, 64, num_layers=2, batch_first=True);   (fc): Linear(in_features=64, out_features=24, bias=True); )",BTCUSDT,100,24,32,0.001,50,15,0.0017333046096749732,0.002762967177953825,close
77.46009733345026,168.5835029727084,TransformerTimeSeries,"TransformerTimeSeries(;   (input_projection): Linear(in_features=1, out_features=64, bias=True);   (transformer_encoder): TransformerEncoder(;     (layers): ModuleList(;       (0-1): 2 x TransformerEncoderLayer(;         (self_attn): MultiheadAttention(;           (out_proj): NonDynamicallyQuantizab",BTCUSDT,100,24,32,0.001,50,15,0.0021170033146764677,0.0026023400461016918,close
75.07653936441794,168.84794619847528,ConvFC,"ConvFC(;   (conv): Conv1d(1, 16, kernel_size=(3,), stride=(1,));   (fc): Sequential(;     (0): Linear(in_features=1568, out_features=128, bias=True);     (1): ReLU();     (2): Linear(in_features=128, out_features=24, bias=True);   ); )",BTCUSDT,100,24,32,0.001,50,15,0.0020356088142316946,0.002465094868791096,close
75.7007149538959,169.09437079716494,SimpleFC,"SimpleFC(;   (fc): Sequential(;     (0): Flatten(start_dim=1, end_dim=-1);     (1): Linear(in_features=100, out_features=128, bias=True);     (2): ReLU();     (3): Linear(in_features=128, out_features=24, bias=True);   ); )",BTCUSDT,100,24,32,0.001,50,15,0.002147141189168047,0.002466452036793965,close
76.44187567894596,168.12030060653746,GRUStacked,"GRUStacked(;   (gru): GRU(1, 64, num_layers=2, batch_first=True);   (fc): Linear(in_features=64, out_features=24, bias=True); )",BTCUSDT,100,24,32,0.001,50,15,0.0017575556360403754,0.0024451714328099054,close
78.78589448115964,172.27703315276912,TransformerTimeSeries,"TransformerTimeSeries(;   (input_projection): Linear(in_features=1, out_features=64, bias=True);   (transformer_encoder): TransformerEncoder(;     (layers): ModuleList(;       (0-1): 2 x TransformerEncoderLayer(;         (self_attn): MultiheadAttention(;           (out_proj): NonDynamicallyQuantizab",BTCUSDT,100,24,32,0.001,50,15,0.002153875133343547,0.0024152825155072163,close
66.74358681316666,130.86307350245792,ConvFC,"ConvFC(;   (conv): Conv1d(1, 16, kernel_size=(3,), stride=(1,));   (fc): Sequential(;     (0): Linear(in_features=1568, out_features=128, bias=True);     (1): ReLU();     (2): Linear(in_features=128, out_features=24, bias=True);   ); )",BTCUSDT,100,24,32,0.0005,50,30,0.0015974938613794074,0.001964679652218,close
67.85932571985748,133.25646047313847,SimpleFC,"SimpleFC(;   (fc): Sequential(;     (0): Flatten(start_dim=1, end_dim=-1);     (1): Linear(in_features=100, out_features=128, bias=True);     (2): ReLU();     (3): Linear(in_features=128, out_features=24, bias=True);   ); )",BTCUSDT,100,24,32,0.0005,50,30,0.001619038723401026,0.001981069033902621,close
66.39122953096805,130.39981038470597,GRUStacked,"GRUStacked(;   (gru): GRU(1, 64, num_layers=2, batch_first=True);   (fc): Linear(in_features=64, out_features=24, bias=True); )",BTCUSDT,100,24,32,0.0005,50,30,0.001245197048278937,0.0019613196718329924,close
67.87157425686287,131.58184559088292,TransformerTimeSeries,"TransformerTimeSeries(;   (input_projection): Linear(in_features=1, out_features=64, bias=True);   (transformer_encoder): TransformerEncoder(;     (layers): ModuleList(;       (0-1): 2 x TransformerEncoderLayer(;         (self_attn): MultiheadAttention(;           (out_proj): NonDynamicallyQuantizab",BTCUSDT,100,24,32,0.0005,50,30,0.001562919643149547,0.002141178231237494,close
68.74163019899088,133.66928909426997,ConvFC,"ConvFC(;   (conv): Conv1d(1, 16, kernel_size=(3,), stride=(1,));   (fc): Sequential(;     (0): Linear(in_features=1568, out_features=128, bias=True);     (1): ReLU();     (2): Linear(in_features=128, out_features=24, bias=True);   ); )",BTCUSDT,100,24,32,0.0005,50,30,0.001574622070573094,0.0019936035542139656,close
70.85691935595882,134.12791598350873,SimpleFC,"SimpleFC(;   (fc): Sequential(;     (0): Flatten(start_dim=1, end_dim=-1);     (1): Linear(in_features=100, out_features=128, bias=True);     (2): ReLU();     (3): Linear(in_features=128, out_features=24, bias=True);   ); )",BTCUSDT,100,24,32,0.0005,50,30,0.0016366524394167243,0.0020111785113506677,close
68.54368893920908,134.34705448050764,GRUStacked,"GRUStacked(;   (gru): GRU(1, 64, num_layers=2, batch_first=True);   (fc): Linear(in_features=64, out_features=24, bias=True); )",BTCUSDT,100,24,32,0.0005,50,30,0.0013786512047703414,0.0019185940164582413,close
65.72333449329592,130.0260651094791,TransformerTimeSeries,"TransformerTimeSeries(;   (input_projection): Linear(in_features=1, out_features=64, bias=True);   (transformer_encoder): TransformerEncoder(;     (layers): ModuleList(;       (0-1): 2 x TransformerEncoderLayer(;         (self_attn): MultiheadAttention(;           (out_proj): NonDynamicallyQuantizab",BTCUSDT,100,24,32,0.0005,50,30,0.0015318173685213538,0.0019534395309832964,close
74.62999678765371,138.9047829603381,ConvFC,"ConvFC(;   (conv): Conv1d(1, 16, kernel_size=(3,), stride=(1,));   (fc): Sequential(;     (0): Linear(in_features=1568, out_features=128, bias=True);     (1): ReLU();     (2): Linear(in_features=128, out_features=24, bias=True);   ); )",BTCUSDT,100,24,32,0.0005,50,30,0.0016310557914767081,0.0020528749806359974,close
69.55055061162798,133.7164339307756,SimpleFC,"SimpleFC(;   (fc): Sequential(;     (0): Flatten(start_dim=1, end_dim=-1);     (1): Linear(in_features=100, out_features=128, bias=True);     (2): ReLU();     (3): Linear(in_features=128, out_features=24, bias=True);   ); )",BTCUSDT,100,24,32,0.0005,50,30,0.0016725837188034894,0.0020329836611491167,close
67.29403040376285,130.57337037385386,GRUStacked,"GRUStacked(;   (gru): GRU(1, 64, num_layers=2, batch_first=True);   (fc): Linear(in_features=64, out_features=24, bias=True); )",BTCUSDT,100,24,32,0.0005,50,30,0.0015379441316768798,0.0019196471179393176,close
74.59535069746876,135.7630228252874,TransformerTimeSeries,"TransformerTimeSeries(;   (input_projection): Linear(in_features=1, out_features=64, bias=True);   (transformer_encoder): TransformerEncoder(;     (layers): ModuleList(;       (0-1): 2 x TransformerEncoderLayer(;         (self_attn): MultiheadAttention(;           (out_proj): NonDynamicallyQuantizab",BTCUSDT,100,24,32,0.0005,50,30,0.0017636419860503905,0.002026206110708853,close
74.89331677700332,172.25035645038452,ConvFC,"ConvFC(;   (conv): Conv1d(1, 16, kernel_size=(3,), stride=(1,));   (fc): Sequential(;     (0): Linear(in_features=1568, out_features=128, bias=True);     (1): ReLU();     (2): Linear(in_features=128, out_features=24, bias=True);   ); )",BTCUSDT,100,24,32,0.0005,50,15,0.0019449533365475744,0.002413218342026348,close
76.72883304616367,169.89062905954714,SimpleFC,"SimpleFC(;   (fc): Sequential(;     (0): Flatten(start_dim=1, end_dim=-1);     (1): Linear(in_features=100, out_features=128, bias=True);     (2): ReLU();     (3): Linear(in_features=128, out_features=24, bias=True);   ); )",BTCUSDT,100,24,32,0.0005,50,15,0.002017816369595644,0.0024818732422164356,close
75.176251826621,166.83252460340316,GRUStacked,"GRUStacked(;   (gru): GRU(1, 64, num_layers=2, batch_first=True);   (fc): Linear(in_features=64, out_features=24, bias=True); )",BTCUSDT,100,24,32,0.0005,50,15,0.0014228252479876855,0.002377076400299798,close
73.93619912263004,167.2608220071245,TransformerTimeSeries,"TransformerTimeSeries(;   (input_projection): Linear(in_features=1, out_features=64, bias=True);   (transformer_encoder): TransformerEncoder(;     (layers): ModuleList(;       (0-1): 2 x TransformerEncoderLayer(;         (self_attn): MultiheadAttention(;           (out_proj): NonDynamicallyQuantizab",BTCUSDT,100,24,32,0.0005,50,15,0.0018918772518740905,0.0024942209205847765,close
75.29297106048828,169.27832670124545,ConvFC,"ConvFC(;   (conv): Conv1d(1, 16, kernel_size=(3,), stride=(1,));   (fc): Sequential(;     (0): Linear(in_features=1568, out_features=128, bias=True);     (1): ReLU();     (2): Linear(in_features=128, out_features=24, bias=True);   ); )",BTCUSDT,100,24,32,0.0005,50,15,0.0019314808101206634,0.0024834056956217466,close
76.28145676765672,170.134082975757,SimpleFC,"SimpleFC(;   (fc): Sequential(;     (0): Flatten(start_dim=1, end_dim=-1);     (1): Linear(in_features=100, out_features=128, bias=True);     (2): ReLU();     (3): Linear(in_features=128, out_features=24, bias=True);   ); )",BTCUSDT,100,24,32,0.0005,50,15,0.0020386974551227883,0.002503640680339925,close
73.61409502142375,165.64219977593424,GRUStacked,"GRUStacked(;   (gru): GRU(1, 64, num_layers=2, batch_first=True);   (fc): Linear(in_features=64, out_features=24, bias=True); )",BTCUSDT,100,24,32,0.0005,50,15,0.0014926488855236844,0.002304992215521043,close
75.4721204355491,169.07434363325095,TransformerTimeSeries,"TransformerTimeSeries(;   (input_projection): Linear(in_features=1, out_features=64, bias=True);   (transformer_encoder): TransformerEncoder(;     (layers): ModuleList(;       (0-1): 2 x TransformerEncoderLayer(;         (self_attn): MultiheadAttention(;           (out_proj): NonDynamicallyQuantizab",BTCUSDT,100,24,32,0.0005,50,15,0.0019262336869596253,0.0024921802526473736,close
76.87647179491516,170.07411937263785,ConvFC,"ConvFC(;   (conv): Conv1d(1, 16, kernel_size=(3,), stride=(1,));   (fc): Sequential(;     (0): Linear(in_features=1568, out_features=128, bias=True);     (1): ReLU();     (2): Linear(in_features=128, out_features=24, bias=True);   ); )",BTCUSDT,100,24,32,0.0005,50,15,0.0019795444053559395,0.0024612535260372247,close
84.34423095159268,176.76760757537818,SimpleFC,"SimpleFC(;   (fc): Sequential(;     (0): Flatten(start_dim=1, end_dim=-1);     (1): Linear(in_features=100, out_features=128, bias=True);     (2): ReLU();     (3): Linear(in_features=128, out_features=24, bias=True);   ); )",BTCUSDT,100,24,32,0.0005,50,15,0.002071710540171567,0.002724852432904018,close
72.26495717676069,160.62661611745963,GRUStacked,"GRUStacked(;   (gru): GRU(1, 64, num_layers=2, batch_first=True);   (fc): Linear(in_features=64, out_features=24, bias=True); )",BTCUSDT,100,24,32,0.0005,50,15,0.0018135412774664302,0.002239394483106168,close
77.81465840875214,170.7538924541875,TransformerTimeSeries,"TransformerTimeSeries(;   (input_projection): Linear(in_features=1, out_features=64, bias=True);   (transformer_encoder): TransformerEncoder(;     (layers): ModuleList(;       (0-1): 2 x TransformerEncoderLayer(;         (self_attn): MultiheadAttention(;           (out_proj): NonDynamicallyQuantizab",BTCUSDT,100,24,32,0.0005,50,15,0.002017854112010275,0.0025176553426893623,close
79.4379724700009,170.47362746786177,ConvFC,"ConvFC(;   (conv): Conv1d(1, 16, kernel_size=(3,), stride=(1,));   (fc): Sequential(;     (0): Linear(in_features=1568, out_features=128, bias=True);     (1): ReLU();     (2): Linear(in_features=128, out_features=24, bias=True);   ); )",BTCUSDT,100,24,32,0.0005,50,15,0.0020948467816449268,0.002440391585873994,close
75.84874981266285,170.67051140681667,SimpleFC,"SimpleFC(;   (fc): Sequential(;     (0): Flatten(start_dim=1, end_dim=-1);     (1): Linear(in_features=100, out_features=128, bias=True);     (2): ReLU();     (3): Linear(in_features=128, out_features=24, bias=True);   ); )",BTCUSDT,100,24,32,0.0005,50,15,0.0021397116572523262,0.0024850707137146666,close
72.45726146596901,161.91820269619015,GRUStacked,"GRUStacked(;   (gru): GRU(1, 64, num_layers=2, batch_first=True);   (fc): Linear(in_features=64, out_features=24, bias=True); )",BTCUSDT,100,24,32,0.0005,50,15,0.0018015883379732818,0.0022567148038266554,close
76.61904248834549,167.9368687406027,TransformerTimeSeries,"TransformerTimeSeries(;   (input_projection): Linear(in_features=1, out_features=64, bias=True);   (transformer_encoder): TransformerEncoder(;     (layers): ModuleList(;       (0-1): 2 x TransformerEncoderLayer(;         (self_attn): MultiheadAttention(;           (out_proj): NonDynamicallyQuantizab",BTCUSDT,100,24,32,0.0005,50,15,0.0021214131742885865,0.002401922461916656,close
69.58725566496243,135.92227029826918,ConvFC,"ConvFC(;   (conv): Conv1d(1, 16, kernel_size=(3,), stride=(1,));   (fc): Sequential(;     (0): Linear(in_features=1568, out_features=128, bias=True);     (1): ReLU();     (2): Linear(in_features=128, out_features=24, bias=True);   ); )",BTCUSDT,100,24,64,0.001,50,30,0.001583612915856664,0.001988593317647881,close
73.32082601827962,136.87698030566682,SimpleFC,"SimpleFC(;   (fc): Sequential(;     (0): Flatten(start_dim=1, end_dim=-1);     (1): Linear(in_features=100, out_features=128, bias=True);     (2): ReLU();     (3): Linear(in_features=128, out_features=24, bias=True);   ); )",BTCUSDT,100,24,64,0.001,50,30,0.0016169943986492504,0.00205988714801584,close
70.55105292286201,138.41725307932867,GRUStacked,"GRUStacked(;   (gru): GRU(1, 64, num_layers=2, batch_first=True);   (fc): Linear(in_features=64, out_features=24, bias=True); )",BTCUSDT,100,24,64,0.001,50,30,0.0012375622764498057,0.002341315899016718,close
67.57234552528081,133.56456903641597,TransformerTimeSeries,"TransformerTimeSeries(;   (input_projection): Linear(in_features=1, out_features=64, bias=True);   (transformer_encoder): TransformerEncoder(;     (layers): ModuleList(;       (0-1): 2 x TransformerEncoderLayer(;         (self_attn): MultiheadAttention(;           (out_proj): NonDynamicallyQuantizab",BTCUSDT,100,24,64,0.001,50,30,0.0015477035930814586,0.0019656311180571923,close
66.85908071871911,132.5350204315168,ConvFC,"ConvFC(;   (conv): Conv1d(1, 16, kernel_size=(3,), stride=(1,));   (fc): Sequential(;     (0): Linear(in_features=1568, out_features=128, bias=True);     (1): ReLU();     (2): Linear(in_features=128, out_features=24, bias=True);   ); )",BTCUSDT,100,24,64,0.001,50,30,0.0015893673761163305,0.001962592055307418,close
68.0768170355893,134.57208580589855,SimpleFC,"SimpleFC(;   (fc): Sequential(;     (0): Flatten(start_dim=1, end_dim=-1);     (1): Linear(in_features=100, out_features=128, bias=True);     (2): ReLU();     (3): Linear(in_features=128, out_features=24, bias=True);   ); )",BTCUSDT,100,24,64,0.001,50,30,0.0016284028689545645,0.0019803290609112863,close
67.81974600198839,133.68542004240658,GRUStacked,"GRUStacked(;   (gru): GRU(1, 64, num_layers=2, batch_first=True);   (fc): Linear(in_features=64, out_features=24, bias=True); )",BTCUSDT,100,24,64,0.001,50,30,0.0012130346429864499,0.0018978325411360172,close
70.0514526637029,133.42793152523473,TransformerTimeSeries,"TransformerTimeSeries(;   (input_projection): Linear(in_features=1, out_features=64, bias=True);   (transformer_encoder): TransformerEncoder(;     (layers): ModuleList(;       (0-1): 2 x TransformerEncoderLayer(;         (self_attn): MultiheadAttention(;           (out_proj): NonDynamicallyQuantizab",BTCUSDT,100,24,64,0.001,50,30,0.0016589059758885408,0.002002350561326968,close
71.99901538102175,135.67075484194132,ConvFC,"ConvFC(;   (conv): Conv1d(1, 16, kernel_size=(3,), stride=(1,));   (fc): Sequential(;     (0): Linear(in_features=1568, out_features=128, bias=True);     (1): ReLU();     (2): Linear(in_features=128, out_features=24, bias=True);   ); )",BTCUSDT,100,24,64,0.001,50,30,0.001579880437910153,0.002038050427749429,close
69.67049527214158,133.96544689990532,SimpleFC,"SimpleFC(;   (fc): Sequential(;     (0): Flatten(start_dim=1, end_dim=-1);     (1): Linear(in_features=100, out_features=128, bias=True);     (2): ReLU();     (3): Linear(in_features=128, out_features=24, bias=True);   ); )",BTCUSDT,100,24,64,0.001,50,30,0.0016676020062837075,0.002044873204382287,close
66.13390708802795,129.69483150910014,GRUStacked,"GRUStacked(;   (gru): GRU(1, 64, num_layers=2, batch_first=True);   (fc): Linear(in_features=64, out_features=24, bias=True); )",BTCUSDT,100,24,64,0.001,50,30,0.0014753748170280286,0.0018341195725881975,close
72.79245319172334,136.23101940061582,TransformerTimeSeries,"TransformerTimeSeries(;   (input_projection): Linear(in_features=1, out_features=64, bias=True);   (transformer_encoder): TransformerEncoder(;     (layers): ModuleList(;       (0-1): 2 x TransformerEncoderLayer(;         (self_attn): MultiheadAttention(;           (out_proj): NonDynamicallyQuantizab",BTCUSDT,100,24,64,0.001,50,30,0.0016425358099908924,0.0020972579183503493,close
70.18841560237014,134.29750678061035,ConvFC,"ConvFC(;   (conv): Conv1d(1, 16, kernel_size=(3,), stride=(1,));   (fc): Sequential(;     (0): Linear(in_features=1568, out_features=128, bias=True);     (1): ReLU();     (2): Linear(in_features=128, out_features=24, bias=True);   ); )",BTCUSDT,100,24,64,0.001,50,30,0.001641901316704415,0.0020088479040243443,close
74.76007265934113,136.71764749323304,SimpleFC,"SimpleFC(;   (fc): Sequential(;     (0): Flatten(start_dim=1, end_dim=-1);     (1): Linear(in_features=100, out_features=128, bias=True);     (2): ReLU();     (3): Linear(in_features=128, out_features=24, bias=True);   ); )",BTCUSDT,100,24,64,0.001,50,30,0.0016822000860558523,0.0020665515117613813,close
70.4379107728102,133.93780378699952,GRUStacked,"GRUStacked(;   (gru): GRU(1, 64, num_layers=2, batch_first=True);   (fc): Linear(in_features=64, out_features=24, bias=True); )",BTCUSDT,100,24,64,0.001,50,30,0.0014761844684244663,0.002184871644845147,close
75.16296982474749,139.63311660906888,TransformerTimeSeries,"TransformerTimeSeries(;   (input_projection): Linear(in_features=1, out_features=64, bias=True);   (transformer_encoder): TransformerEncoder(;     (layers): ModuleList(;       (0-1): 2 x TransformerEncoderLayer(;         (self_attn): MultiheadAttention(;           (out_proj): NonDynamicallyQuantizab",BTCUSDT,100,24,64,0.001,50,30,0.001729681805483307,0.002156609895761161,close
71.57384125167742,134.0980088544316,ConvFC,"ConvFC(;   (conv): Conv1d(1, 16, kernel_size=(3,), stride=(1,));   (fc): Sequential(;     (0): Linear(in_features=1568, out_features=128, bias=True);     (1): ReLU();     (2): Linear(in_features=128, out_features=24, bias=True);   ); )",BTCUSDT,100,24,64,0.001,50,30,0.00166410134393985,0.0020139207821654307,close
74.22023176986339,137.92420448735092,SimpleFC,"SimpleFC(;   (fc): Sequential(;     (0): Flatten(start_dim=1, end_dim=-1);     (1): Linear(in_features=100, out_features=128, bias=True);     (2): ReLU();     (3): Linear(in_features=128, out_features=24, bias=True);   ); )",BTCUSDT,100,24,64,0.001,50,30,0.001670356465098595,0.0020146807697168576,close
65.93273882455755,131.65109178369158,GRUStacked,"GRUStacked(;   (gru): GRU(1, 64, num_layers=2, batch_first=True);   (fc): Linear(in_features=64, out_features=24, bias=True); )",BTCUSDT,100,24,64,0.001,50,30,0.0015027889641243274,0.0018535281964484939,close
69.86321179495681,134.34597764556898,TransformerTimeSeries,"TransformerTimeSeries(;   (input_projection): Linear(in_features=1, out_features=64, bias=True);   (transformer_encoder): TransformerEncoder(;     (layers): ModuleList(;       (0-1): 2 x TransformerEncoderLayer(;         (self_attn): MultiheadAttention(;           (out_proj): NonDynamicallyQuantizab",BTCUSDT,100,24,64,0.001,50,30,0.0017291502526447697,0.001975394023150984,close
75.73488119186185,171.25716925063048,ConvFC,"ConvFC(;   (conv): Conv1d(1, 16, kernel_size=(3,), stride=(1,));   (fc): Sequential(;     (0): Linear(in_features=1568, out_features=128, bias=True);     (1): ReLU();     (2): Linear(in_features=128, out_features=24, bias=True);   ); )",BTCUSDT,100,24,64,0.001,50,15,0.001956989542106537,0.002520548667480881,close
78.91897498420285,171.44990004651785,SimpleFC,"SimpleFC(;   (fc): Sequential(;     (0): Flatten(start_dim=1, end_dim=-1);     (1): Linear(in_features=100, out_features=128, bias=True);     (2): ReLU();     (3): Linear(in_features=128, out_features=24, bias=True);   ); )",BTCUSDT,100,24,64,0.001,50,15,0.0020023485235563278,0.002455484112336611,close
81.55565111063392,172.3905504252938,GRUStacked,"GRUStacked(;   (gru): GRU(1, 64, num_layers=2, batch_first=True);   (fc): Linear(in_features=64, out_features=24, bias=True); )",BTCUSDT,100,24,64,0.001,50,15,0.0012728279716474487,0.0025498945944957157,close
73.96532105426209,166.89150566371433,TransformerTimeSeries,"TransformerTimeSeries(;   (input_projection): Linear(in_features=1, out_features=64, bias=True);   (transformer_encoder): TransformerEncoder(;     (layers): ModuleList(;       (0-1): 2 x TransformerEncoderLayer(;         (self_attn): MultiheadAttention(;           (out_proj): NonDynamicallyQuantizab",BTCUSDT,100,24,64,0.001,50,15,0.0018968634764582114,0.002496971741879971,close
76.6786861351196,171.91559191028125,ConvFC,"ConvFC(;   (conv): Conv1d(1, 16, kernel_size=(3,), stride=(1,));   (fc): Sequential(;     (0): Linear(in_features=1568, out_features=128, bias=True);     (1): ReLU();     (2): Linear(in_features=128, out_features=24, bias=True);   ); )",BTCUSDT,100,24,64,0.001,50,15,0.0019346031529441812,0.0025514354810522474,close
75.02816000871248,169.770674332715,SimpleFC,"SimpleFC(;   (fc): Sequential(;     (0): Flatten(start_dim=1, end_dim=-1);     (1): Linear(in_features=100, out_features=128, bias=True);     (2): ReLU();     (3): Linear(in_features=128, out_features=24, bias=True);   ); )",BTCUSDT,100,24,64,0.001,50,15,0.0020381024001780716,0.00257297949425388,close
75.56484764690684,166.71080458631798,GRUStacked,"GRUStacked(;   (gru): GRU(1, 64, num_layers=2, batch_first=True);   (fc): Linear(in_features=64, out_features=24, bias=True); )",BTCUSDT,100,24,64,0.001,50,15,0.0013667394201729872,0.0025572204804340387,close
75.84277632122298,168.30434799272342,TransformerTimeSeries,"TransformerTimeSeries(;   (input_projection): Linear(in_features=1, out_features=64, bias=True);   (transformer_encoder): TransformerEncoder(;     (layers): ModuleList(;       (0-1): 2 x TransformerEncoderLayer(;         (self_attn): MultiheadAttention(;           (out_proj): NonDynamicallyQuantizab",BTCUSDT,100,24,64,0.001,50,15,0.0020245263291987885,0.002403312113731065,close
75.56173152285815,169.40331631684128,ConvFC,"ConvFC(;   (conv): Conv1d(1, 16, kernel_size=(3,), stride=(1,));   (fc): Sequential(;     (0): Linear(in_features=1568, out_features=128, bias=True);     (1): ReLU();     (2): Linear(in_features=128, out_features=24, bias=True);   ); )",BTCUSDT,100,24,64,0.001,50,15,0.0019503357278538257,0.002416723980742691,close
78.53132682662537,173.84920928108832,SimpleFC,"SimpleFC(;   (fc): Sequential(;     (0): Flatten(start_dim=1, end_dim=-1);     (1): Linear(in_features=100, out_features=128, bias=True);     (2): ReLU();     (3): Linear(in_features=128, out_features=24, bias=True);   ); )",BTCUSDT,100,24,64,0.001,50,15,0.0020542766702289863,0.002507312663879745,close
74.42847326469361,164.49461966864945,GRUStacked,"GRUStacked(;   (gru): GRU(1, 64, num_layers=2, batch_first=True);   (fc): Linear(in_features=64, out_features=24, bias=True); )",BTCUSDT,100,24,64,0.001,50,15,0.0016109474922021895,0.002345863118816104,close
74.9008272096852,167.21691711783464,TransformerTimeSeries,"TransformerTimeSeries(;   (input_projection): Linear(in_features=1, out_features=64, bias=True);   (transformer_encoder): TransformerEncoder(;     (layers): ModuleList(;       (0-1): 2 x TransformerEncoderLayer(;         (self_attn): MultiheadAttention(;           (out_proj): NonDynamicallyQuantizab",BTCUSDT,100,24,64,0.001,50,15,0.001938457551108231,0.0023698946645265167,close
76.49927771212836,171.03652720823348,ConvFC,"ConvFC(;   (conv): Conv1d(1, 16, kernel_size=(3,), stride=(1,));   (fc): Sequential(;     (0): Linear(in_features=1568, out_features=128, bias=True);     (1): ReLU();     (2): Linear(in_features=128, out_features=24, bias=True);   ); )",BTCUSDT,100,24,64,0.001,50,15,0.0020018444214985848,0.0024274544376887805,close
76.85749200306698,171.21147214854156,SimpleFC,"SimpleFC(;   (fc): Sequential(;     (0): Flatten(start_dim=1, end_dim=-1);     (1): Linear(in_features=100, out_features=128, bias=True);     (2): ReLU();     (3): Linear(in_features=128, out_features=24, bias=True);   ); )",BTCUSDT,100,24,64,0.001,50,15,0.002093567091422935,0.002496676980183181,close
72.60335666039167,163.04855669433994,GRUStacked,"GRUStacked(;   (gru): GRU(1, 64, num_layers=2, batch_first=True);   (fc): Linear(in_features=64, out_features=24, bias=True); )",BTCUSDT,100,24,64,0.001,50,15,0.0017247182435729121,0.0022150917311372226,close
77.57573924290303,168.7201768665823,TransformerTimeSeries,"TransformerTimeSeries(;   (input_projection): Linear(in_features=1, out_features=64, bias=True);   (transformer_encoder): TransformerEncoder(;     (layers): ModuleList(;       (0-1): 2 x TransformerEncoderLayer(;         (self_attn): MultiheadAttention(;           (out_proj): NonDynamicallyQuantizab",BTCUSDT,100,24,64,0.001,50,15,0.0019956793653170624,0.002366205637249308,close
78.69464751400326,172.32509854444493,ConvFC,"ConvFC(;   (conv): Conv1d(1, 16, kernel_size=(3,), stride=(1,));   (fc): Sequential(;     (0): Linear(in_features=1568, out_features=128, bias=True);     (1): ReLU();     (2): Linear(in_features=128, out_features=24, bias=True);   ); )",BTCUSDT,100,24,64,0.001,50,15,0.0019989473441333365,0.0024365079796570465,close
74.81176703069325,169.32966478332548,SimpleFC,"SimpleFC(;   (fc): Sequential(;     (0): Flatten(start_dim=1, end_dim=-1);     (1): Linear(in_features=100, out_features=128, bias=True);     (2): ReLU();     (3): Linear(in_features=128, out_features=24, bias=True);   ); )",BTCUSDT,100,24,64,0.001,50,15,0.002086927957317967,0.002429981960125992,close
73.32718867811093,165.58185099486641,GRUStacked,"GRUStacked(;   (gru): GRU(1, 64, num_layers=2, batch_first=True);   (fc): Linear(in_features=64, out_features=24, bias=True); )",BTCUSDT,100,24,64,0.001,50,15,0.0015606865992984225,0.0024234194741280667,close
83.55666827474056,173.70077604243963,TransformerTimeSeries,"TransformerTimeSeries(;   (input_projection): Linear(in_features=1, out_features=64, bias=True);   (transformer_encoder): TransformerEncoder(;     (layers): ModuleList(;       (0-1): 2 x TransformerEncoderLayer(;         (self_attn): MultiheadAttention(;           (out_proj): NonDynamicallyQuantizab",BTCUSDT,100,24,64,0.001,50,15,0.002074853830829656,0.002433862799853379,close
90.53302983592091,177.46387704169197,ConvFC,"ConvFC(;   (conv): Conv1d(1, 16, kernel_size=(3,), stride=(1,));   (fc): Sequential(;     (0): Linear(in_features=1568, out_features=128, bias=True);     (1): ReLU();     (2): Linear(in_features=128, out_features=24, bias=True);   ); )",BTCUSDT,100,24,64,0.001,50,15,0.002081995427356816,0.002595230260586078,close
76.87800851417495,171.26292160870108,SimpleFC,"SimpleFC(;   (fc): Sequential(;     (0): Flatten(start_dim=1, end_dim=-1);     (1): Linear(in_features=100, out_features=128, bias=True);     (2): ReLU();     (3): Linear(in_features=128, out_features=24, bias=True);   ); )",BTCUSDT,100,24,64,0.001,50,15,0.002102879353908155,0.0025022605692479613,close
72.79435172837604,163.12984806396923,GRUStacked,"GRUStacked(;   (gru): GRU(1, 64, num_layers=2, batch_first=True);   (fc): Linear(in_features=64, out_features=24, bias=True); )",BTCUSDT,100,24,64,0.001,50,15,0.0015782678396177871,0.0022980542151186533,close
82.67221649838326,177.93102554316667,TransformerTimeSeries,"TransformerTimeSeries(;   (input_projection): Linear(in_features=1, out_features=64, bias=True);   (transformer_encoder): TransformerEncoder(;     (layers): ModuleList(;       (0-1): 2 x TransformerEncoderLayer(;         (self_attn): MultiheadAttention(;           (out_proj): NonDynamicallyQuantizab",BTCUSDT,100,24,64,0.001,50,15,0.0023307275742136544,0.002646323899988193,close
66.93238020719379,131.85448998324006,ConvFC,"ConvFC(;   (conv): Conv1d(1, 16, kernel_size=(3,), stride=(1,));   (fc): Sequential(;     (0): Linear(in_features=1568, out_features=128, bias=True);     (1): ReLU();     (2): Linear(in_features=128, out_features=24, bias=True);   ); )",BTCUSDT,100,24,64,0.0005,50,30,0.001525972005451259,0.001985007363941255,close
67.09262775970211,132.7407778107477,SimpleFC,"SimpleFC(;   (fc): Sequential(;     (0): Flatten(start_dim=1, end_dim=-1);     (1): Linear(in_features=100, out_features=128, bias=True);     (2): ReLU();     (3): Linear(in_features=128, out_features=24, bias=True);   ); )",BTCUSDT,100,24,64,0.0005,50,30,0.0015746912131225242,0.001993855570512149,close
72.59479055675591,144.546905167547,GRUStacked,"GRUStacked(;   (gru): GRU(1, 64, num_layers=2, batch_first=True);   (fc): Linear(in_features=64, out_features=24, bias=True); )",BTCUSDT,100,24,64,0.0005,50,30,0.0010202103858144216,0.0021124410217066617,close
66.29352725336238,129.7394039407951,TransformerTimeSeries,"TransformerTimeSeries(;   (input_projection): Linear(in_features=1, out_features=64, bias=True);   (transformer_encoder): TransformerEncoder(;     (layers): ModuleList(;       (0-1): 2 x TransformerEncoderLayer(;         (self_attn): MultiheadAttention(;           (out_proj): NonDynamicallyQuantizab",BTCUSDT,100,24,64,0.0005,50,30,0.0014066474599411152,0.0019418629348769577,close
66.64392193310782,131.90927991590226,ConvFC,"ConvFC(;   (conv): Conv1d(1, 16, kernel_size=(3,), stride=(1,));   (fc): Sequential(;     (0): Linear(in_features=1568, out_features=128, bias=True);     (1): ReLU();     (2): Linear(in_features=128, out_features=24, bias=True);   ); )",BTCUSDT,100,24,64,0.0005,50,30,0.0015147469379039754,0.001983771314490182,close
77.46930330203377,142.64423463439934,SimpleFC,"SimpleFC(;   (fc): Sequential(;     (0): Flatten(start_dim=1, end_dim=-1);     (1): Linear(in_features=100, out_features=128, bias=True);     (2): ReLU();     (3): Linear(in_features=128, out_features=24, bias=True);   ); )",BTCUSDT,100,24,64,0.0005,50,30,0.0015983564607254185,0.002066354138230014,close
71.68651443873738,148.19859942201884,GRUStacked,"GRUStacked(;   (gru): GRU(1, 64, num_layers=2, batch_first=True);   (fc): Linear(in_features=64, out_features=24, bias=True); )",BTCUSDT,100,24,64,0.0005,50,30,0.0009645473361754693,0.0021053212707477583,close
67.56031473163378,130.26870088068654,TransformerTimeSeries,"TransformerTimeSeries(;   (input_projection): Linear(in_features=1, out_features=64, bias=True);   (transformer_encoder): TransformerEncoder(;     (layers): ModuleList(;       (0-1): 2 x TransformerEncoderLayer(;         (self_attn): MultiheadAttention(;           (out_proj): NonDynamicallyQuantizab",BTCUSDT,100,24,64,0.0005,50,30,0.001458055999799758,0.0019542105175154893,close
68.82551805786287,135.18957569664607,ConvFC,"ConvFC(;   (conv): Conv1d(1, 16, kernel_size=(3,), stride=(1,));   (fc): Sequential(;     (0): Linear(in_features=1568, out_features=128, bias=True);     (1): ReLU();     (2): Linear(in_features=128, out_features=24, bias=True);   ); )",BTCUSDT,100,24,64,0.0005,50,30,0.001524646261418545,0.0019886443590177876,close
70.84591057155187,134.67704410844217,SimpleFC,"SimpleFC(;   (fc): Sequential(;     (0): Flatten(start_dim=1, end_dim=-1);     (1): Linear(in_features=100, out_features=128, bias=True);     (2): ReLU();     (3): Linear(in_features=128, out_features=24, bias=True);   ); )",BTCUSDT,100,24,64,0.0005,50,30,0.0015874366770691362,0.002020948971243483,close
68.73095533183529,131.1824841872312,GRUStacked,"GRUStacked(;   (gru): GRU(1, 64, num_layers=2, batch_first=True);   (fc): Linear(in_features=64, out_features=24, bias=True); )",BTCUSDT,100,24,64,0.0005,50,30,0.001227274270880257,0.001964688593319815,close
69.89255811754799,135.05198005998542,TransformerTimeSeries,"TransformerTimeSeries(;   (input_projection): Linear(in_features=1, out_features=64, bias=True);   (transformer_encoder): TransformerEncoder(;     (layers): ModuleList(;       (0-1): 2 x TransformerEncoderLayer(;         (self_attn): MultiheadAttention(;           (out_proj): NonDynamicallyQuantizab",BTCUSDT,100,24,64,0.0005,50,30,0.0014750866785668481,0.002085173077676625,close
68.72854423016155,133.6250748999494,ConvFC,"ConvFC(;   (conv): Conv1d(1, 16, kernel_size=(3,), stride=(1,));   (fc): Sequential(;     (0): Linear(in_features=1568, out_features=128, bias=True);     (1): ReLU();     (2): Linear(in_features=128, out_features=24, bias=True);   ); )",BTCUSDT,100,24,64,0.0005,50,30,0.0015709355725991106,0.0019889956322689272,close
68.3623402348324,133.94553733741037,SimpleFC,"SimpleFC(;   (fc): Sequential(;     (0): Flatten(start_dim=1, end_dim=-1);     (1): Linear(in_features=100, out_features=128, bias=True);     (2): ReLU();     (3): Linear(in_features=128, out_features=24, bias=True);   ); )",BTCUSDT,100,24,64,0.0005,50,30,0.0016071199987927485,0.002001695313856764,close
64.73971040153437,128.2581744817089,GRUStacked,"GRUStacked(;   (gru): GRU(1, 64, num_layers=2, batch_first=True);   (fc): Linear(in_features=64, out_features=24, bias=True); )",BTCUSDT,100,24,64,0.0005,50,30,0.0012983264434212034,0.0021370335840656656,close
68.34087914094182,132.8819443806357,TransformerTimeSeries,"TransformerTimeSeries(;   (input_projection): Linear(in_features=1, out_features=64, bias=True);   (transformer_encoder): TransformerEncoder(;     (layers): ModuleList(;       (0-1): 2 x TransformerEncoderLayer(;         (self_attn): MultiheadAttention(;           (out_proj): NonDynamicallyQuantizab",BTCUSDT,100,24,64,0.0005,50,30,0.0015309237833843862,0.0019715684245676275,close
67.76650815109564,132.69225537238523,ConvFC,"ConvFC(;   (conv): Conv1d(1, 16, kernel_size=(3,), stride=(1,));   (fc): Sequential(;     (0): Linear(in_features=1568, out_features=128, bias=True);     (1): ReLU();     (2): Linear(in_features=128, out_features=24, bias=True);   ); )",BTCUSDT,100,24,64,0.0005,50,30,0.0015599260058216317,0.001964762312619371,close
66.85028656149028,131.59896237471347,SimpleFC,"SimpleFC(;   (fc): Sequential(;     (0): Flatten(start_dim=1, end_dim=-1);     (1): Linear(in_features=100, out_features=128, bias=True);     (2): ReLU();     (3): Linear(in_features=128, out_features=24, bias=True);   ); )",BTCUSDT,100,24,64,0.0005,50,30,0.001594003513706107,0.0019669679590292245,close
65.8708032689367,129.78759468512882,GRUStacked,"GRUStacked(;   (gru): GRU(1, 64, num_layers=2, batch_first=True);   (fc): Linear(in_features=64, out_features=24, bias=True); )",BTCUSDT,100,24,64,0.0005,50,30,0.0012525480863940358,0.002066863808234825,close
65.56625299772666,130.50683519741696,TransformerTimeSeries,"TransformerTimeSeries(;   (input_projection): Linear(in_features=1, out_features=64, bias=True);   (transformer_encoder): TransformerEncoder(;     (layers): ModuleList(;       (0-1): 2 x TransformerEncoderLayer(;         (self_attn): MultiheadAttention(;           (out_proj): NonDynamicallyQuantizab",BTCUSDT,100,24,64,0.0005,50,30,0.0015872970530194765,0.0019311733656492004,close
66.84760937787556,131.4767381690343,ConvFC,"ConvFC(;   (conv): Conv1d(1, 16, kernel_size=(3,), stride=(1,));   (fc): Sequential(;     (0): Linear(in_features=1568, out_features=128, bias=True);     (1): ReLU();     (2): Linear(in_features=128, out_features=24, bias=True);   ); )",BTCUSDT,100,24,64,0.0005,50,30,0.0016143513587590906,0.001963300980715551,close
75.48909553916407,138.94856675229155,SimpleFC,"SimpleFC(;   (fc): Sequential(;     (0): Flatten(start_dim=1, end_dim=-1);     (1): Linear(in_features=100, out_features=128, bias=True);     (2): ReLU();     (3): Linear(in_features=128, out_features=24, bias=True);   ); )",BTCUSDT,100,24,64,0.0005,50,30,0.0016238471820173767,0.002045828506790871,close
66.95052267563635,129.0828608128504,GRUStacked,"GRUStacked(;   (gru): GRU(1, 64, num_layers=2, batch_first=True);   (fc): Linear(in_features=64, out_features=24, bias=True); )",BTCUSDT,100,24,64,0.0005,50,30,0.0012659074192715295,0.0019309025337685638,close
71.19858878307083,134.8607362611355,TransformerTimeSeries,"TransformerTimeSeries(;   (input_projection): Linear(in_features=1, out_features=64, bias=True);   (transformer_encoder): TransformerEncoder(;     (layers): ModuleList(;       (0-1): 2 x TransformerEncoderLayer(;         (self_attn): MultiheadAttention(;           (out_proj): NonDynamicallyQuantizab",BTCUSDT,100,24,64,0.0005,50,30,0.0017179787204158843,0.002038393762965961,close
73.8270119569046,138.5217243616452,ConvFC,"ConvFC(;   (conv): Conv1d(1, 16, kernel_size=(3,), stride=(1,));   (fc): Sequential(;     (0): Linear(in_features=1568, out_features=128, bias=True);     (1): ReLU();     (2): Linear(in_features=128, out_features=24, bias=True);   ); )",BTCUSDT,100,24,64,0.0005,50,30,0.0017138260451179963,0.0020615497523449712,close
70.94235679952365,135.74528367015867,SimpleFC,"SimpleFC(;   (fc): Sequential(;     (0): Flatten(start_dim=1, end_dim=-1);     (1): Linear(in_features=100, out_features=128, bias=True);     (2): ReLU();     (3): Linear(in_features=128, out_features=24, bias=True);   ); )",BTCUSDT,100,24,64,0.0005,50,30,0.0016716174524697756,0.0019999413228321567,close
66.5633727505517,131.21221831210954,GRUStacked,"GRUStacked(;   (gru): GRU(1, 64, num_layers=2, batch_first=True);   (fc): Linear(in_features=64, out_features=24, bias=True); )",BTCUSDT,100,24,64,0.0005,50,30,0.0016245517235527784,0.0019344529318738536,close
66.57153074519464,132.72597138534707,TransformerTimeSeries,"TransformerTimeSeries(;   (input_projection): Linear(in_features=1, out_features=64, bias=True);   (transformer_encoder): TransformerEncoder(;     (layers): ModuleList(;       (0-1): 2 x TransformerEncoderLayer(;         (self_attn): MultiheadAttention(;           (out_proj): NonDynamicallyQuantizab",BTCUSDT,100,24,64,0.0005,50,30,0.0016773007420068594,0.0019633896318970107,close
74.7676579829869,172.7082706822629,ConvFC,"ConvFC(;   (conv): Conv1d(1, 16, kernel_size=(3,), stride=(1,));   (fc): Sequential(;     (0): Linear(in_features=1568, out_features=128, bias=True);     (1): ReLU();     (2): Linear(in_features=128, out_features=24, bias=True);   ); )",BTCUSDT,100,24,64,0.0005,50,15,0.0019091959841184023,0.0025050135307994803,close
75.10310502669586,169.09586135685402,SimpleFC,"SimpleFC(;   (fc): Sequential(;     (0): Flatten(start_dim=1, end_dim=-1);     (1): Linear(in_features=100, out_features=128, bias=True);     (2): ReLU();     (3): Linear(in_features=128, out_features=24, bias=True);   ); )",BTCUSDT,100,24,64,0.0005,50,15,0.001956782548957273,0.002434393162048953,close
86.90703935797951,186.2724899494808,GRUStacked,"GRUStacked(;   (gru): GRU(1, 64, num_layers=2, batch_first=True);   (fc): Linear(in_features=64, out_features=24, bias=True); )",BTCUSDT,100,24,64,0.0005,50,15,0.0010043277751494056,0.0027839212234363696,close
74.00892718166848,166.3932816853835,TransformerTimeSeries,"TransformerTimeSeries(;   (input_projection): Linear(in_features=1, out_features=64, bias=True);   (transformer_encoder): TransformerEncoder(;     (layers): ModuleList(;       (0-1): 2 x TransformerEncoderLayer(;         (self_attn): MultiheadAttention(;           (out_proj): NonDynamicallyQuantizab",BTCUSDT,100,24,64,0.0005,50,15,0.0017150430401930246,0.0024348918027565073,close
75.75919134293629,170.98287290676308,ConvFC,"ConvFC(;   (conv): Conv1d(1, 16, kernel_size=(3,), stride=(1,));   (fc): Sequential(;     (0): Linear(in_features=1568, out_features=128, bias=True);     (1): ReLU();     (2): Linear(in_features=128, out_features=24, bias=True);   ); )",BTCUSDT,100,24,64,0.0005,50,15,0.0018804245934226334,0.0024738071541468374,close
79.255198804752,171.40223645985657,SimpleFC,"SimpleFC(;   (fc): Sequential(;     (0): Flatten(start_dim=1, end_dim=-1);     (1): Linear(in_features=100, out_features=128, bias=True);     (2): ReLU();     (3): Linear(in_features=128, out_features=24, bias=True);   ); )",BTCUSDT,100,24,64,0.0005,50,15,0.001985124350826937,0.002459650672311391,close
74.31938682135025,166.4081393006695,GRUStacked,"GRUStacked(;   (gru): GRU(1, 64, num_layers=2, batch_first=True);   (fc): Linear(in_features=64, out_features=24, bias=True); )",BTCUSDT,100,24,64,0.0005,50,15,0.0012251934850561613,0.0024361186561704467,close
73.82733847023317,167.52458280313328,TransformerTimeSeries,"TransformerTimeSeries(;   (input_projection): Linear(in_features=1, out_features=64, bias=True);   (transformer_encoder): TransformerEncoder(;     (layers): ModuleList(;       (0-1): 2 x TransformerEncoderLayer(;         (self_attn): MultiheadAttention(;           (out_proj): NonDynamicallyQuantizab",BTCUSDT,100,24,64,0.0005,50,15,0.001816699978150044,0.002712013298906566,close
75.25974742670654,170.91974333117267,ConvFC,"ConvFC(;   (conv): Conv1d(1, 16, kernel_size=(3,), stride=(1,));   (fc): Sequential(;     (0): Linear(in_features=1568, out_features=128, bias=True);     (1): ReLU();     (2): Linear(in_features=128, out_features=24, bias=True);   ); )",BTCUSDT,100,24,64,0.0005,50,15,0.0018859862800897067,0.002525843343664307,close
75.51848116381689,170.63847144633704,SimpleFC,"SimpleFC(;   (fc): Sequential(;     (0): Flatten(start_dim=1, end_dim=-1);     (1): Linear(in_features=100, out_features=128, bias=True);     (2): ReLU();     (3): Linear(in_features=128, out_features=24, bias=True);   ); )",BTCUSDT,100,24,64,0.0005,50,15,0.0019889281054515395,0.002466766746064585,close
76.71501282104613,168.89834136630193,GRUStacked,"GRUStacked(;   (gru): GRU(1, 64, num_layers=2, batch_first=True);   (fc): Linear(in_features=64, out_features=24, bias=True); )",BTCUSDT,100,24,64,0.0005,50,15,0.00146840437681418,0.0025473711965071344,close
74.64122674749788,165.7382559661426,TransformerTimeSeries,"TransformerTimeSeries(;   (input_projection): Linear(in_features=1, out_features=64, bias=True);   (transformer_encoder): TransformerEncoder(;     (layers): ModuleList(;       (0-1): 2 x TransformerEncoderLayer(;         (self_attn): MultiheadAttention(;           (out_proj): NonDynamicallyQuantizab",BTCUSDT,100,24,64,0.0005,50,15,0.0018157954972916996,0.0024309279656533718,close
78.49545525849305,171.1775115557659,ConvFC,"ConvFC(;   (conv): Conv1d(1, 16, kernel_size=(3,), stride=(1,));   (fc): Sequential(;     (0): Linear(in_features=1568, out_features=128, bias=True);     (1): ReLU();     (2): Linear(in_features=128, out_features=24, bias=True);   ); )",BTCUSDT,100,24,64,0.0005,50,15,0.0019096232075097271,0.002423652276722377,close
74.66945486185304,168.73485393277528,SimpleFC,"SimpleFC(;   (fc): Sequential(;     (0): Flatten(start_dim=1, end_dim=-1);     (1): Linear(in_features=100, out_features=128, bias=True);     (2): ReLU();     (3): Linear(in_features=128, out_features=24, bias=True);   ); )",BTCUSDT,100,24,64,0.0005,50,15,0.0019898077513606114,0.00245156231100653,close
73.01076893252574,162.46184793937235,GRUStacked,"GRUStacked(;   (gru): GRU(1, 64, num_layers=2, batch_first=True);   (fc): Linear(in_features=64, out_features=24, bias=True); )",BTCUSDT,100,24,64,0.0005,50,15,0.0015731683944381354,0.002264175389005897,close
75.83736137932307,170.18229815444946,TransformerTimeSeries,"TransformerTimeSeries(;   (input_projection): Linear(in_features=1, out_features=64, bias=True);   (transformer_encoder): TransformerEncoder(;     (layers): ModuleList(;       (0-1): 2 x TransformerEncoderLayer(;         (self_attn): MultiheadAttention(;           (out_proj): NonDynamicallyQuantizab",BTCUSDT,100,24,64,0.0005,50,15,0.0018133080177346376,0.002717398761536539,close
77.22409799994152,171.98060992757112,ConvFC,"ConvFC(;   (conv): Conv1d(1, 16, kernel_size=(3,), stride=(1,));   (fc): Sequential(;     (0): Linear(in_features=1568, out_features=128, bias=True);     (1): ReLU();     (2): Linear(in_features=128, out_features=24, bias=True);   ); )",BTCUSDT,100,24,64,0.0005,50,15,0.0019236755996830098,0.002463836579022317,close
74.94326015625388,168.49349553980423,SimpleFC,"SimpleFC(;   (fc): Sequential(;     (0): Flatten(start_dim=1, end_dim=-1);     (1): Linear(in_features=100, out_features=128, bias=True);     (2): ReLU();     (3): Linear(in_features=128, out_features=24, bias=True);   ); )",BTCUSDT,100,24,64,0.0005,50,15,0.001985745013765582,0.0024159778507622095,close
73.89817282169274,164.9737005985254,GRUStacked,"GRUStacked(;   (gru): GRU(1, 64, num_layers=2, batch_first=True);   (fc): Linear(in_features=64, out_features=24, bias=True); )",BTCUSDT,100,24,64,0.0005,50,15,0.0014618285260941267,0.002755365238563216,close
72.38641528147842,166.55894505337056,TransformerTimeSeries,"TransformerTimeSeries(;   (input_projection): Linear(in_features=1, out_features=64, bias=True);   (transformer_encoder): TransformerEncoder(;     (layers): ModuleList(;       (0-1): 2 x TransformerEncoderLayer(;         (self_attn): MultiheadAttention(;           (out_proj): NonDynamicallyQuantizab",BTCUSDT,100,24,64,0.0005,50,15,0.0019515406376930063,0.002314340003137927,close
81.59928619402778,175.0502726891265,ConvFC,"ConvFC(;   (conv): Conv1d(1, 16, kernel_size=(3,), stride=(1,));   (fc): Sequential(;     (0): Linear(in_features=1568, out_features=128, bias=True);     (1): ReLU();     (2): Linear(in_features=128, out_features=24, bias=True);   ); )",BTCUSDT,100,24,64,0.0005,50,15,0.0019509590356878998,0.0025724011722497715,close
78.51055990417059,170.94649744828197,SimpleFC,"SimpleFC(;   (fc): Sequential(;     (0): Flatten(start_dim=1, end_dim=-1);     (1): Linear(in_features=100, out_features=128, bias=True);     (2): ReLU();     (3): Linear(in_features=128, out_features=24, bias=True);   ); )",BTCUSDT,100,24,64,0.0005,50,15,0.002018944940795491,0.0024921778709136155,close
77.46674647927516,169.3776882777921,GRUStacked,"GRUStacked(;   (gru): GRU(1, 64, num_layers=2, batch_first=True);   (fc): Linear(in_features=64, out_features=24, bias=True); )",BTCUSDT,100,24,64,0.0005,50,15,0.0014401836358604822,0.002740920697066681,close
75.76211279005813,168.75967673432586,TransformerTimeSeries,"TransformerTimeSeries(;   (input_projection): Linear(in_features=1, out_features=64, bias=True);   (transformer_encoder): TransformerEncoder(;     (layers): ModuleList(;       (0-1): 2 x TransformerEncoderLayer(;         (self_attn): MultiheadAttention(;           (out_proj): NonDynamicallyQuantizab",BTCUSDT,100,24,64,0.0005,50,15,0.002026007737883268,0.0023678668358774885,close
80.11832647117946,170.8855596675146,ConvFC,"ConvFC(;   (conv): Conv1d(1, 16, kernel_size=(3,), stride=(1,));   (fc): Sequential(;     (0): Linear(in_features=1568, out_features=128, bias=True);     (1): ReLU();     (2): Linear(in_features=128, out_features=24, bias=True);   ); )",BTCUSDT,100,24,64,0.0005,50,15,0.002062030456527756,0.0024508929493384894,close
77.65943759936536,173.626358854299,SimpleFC,"SimpleFC(;   (fc): Sequential(;     (0): Flatten(start_dim=1, end_dim=-1);     (1): Linear(in_features=100, out_features=128, bias=True);     (2): ReLU();     (3): Linear(in_features=128, out_features=24, bias=True);   ); )",BTCUSDT,100,24,64,0.0005,50,15,0.0020452746078665836,0.002509803510780541,close
75.19896936950136,166.22365750915307,GRUStacked,"GRUStacked(;   (gru): GRU(1, 64, num_layers=2, batch_first=True);   (fc): Linear(in_features=64, out_features=24, bias=True); )",BTCUSDT,100,24,64,0.0005,50,15,0.0018684355520824703,0.0022978041769406905,close
77.32907436601016,169.83740266270152,TransformerTimeSeries,"TransformerTimeSeries(;   (input_projection): Linear(in_features=1, out_features=64, bias=True);   (transformer_encoder): TransformerEncoder(;     (layers): ModuleList(;       (0-1): 2 x TransformerEncoderLayer(;         (self_attn): MultiheadAttention(;           (out_proj): NonDynamicallyQuantizab",BTCUSDT,100,24,64,0.0005,50,15,0.0020792643469822207,0.0024115580582883263,close
75.25743956448169,170.00160314275868,ConvFC,"ConvFC(;   (conv): Conv1d(1, 16, kernel_size=(3,), stride=(1,));   (fc): Sequential(;     (0): Linear(in_features=1568, out_features=128, bias=True);     (1): ReLU();     (2): Linear(in_features=128, out_features=24, bias=True);   ); )",BTCUSDT,100,24,64,0.0005,50,15,0.002081061014985418,0.0024390265676401024,close
76.59912678059224,170.70608367044363,SimpleFC,"SimpleFC(;   (fc): Sequential(;     (0): Flatten(start_dim=1, end_dim=-1);     (1): Linear(in_features=100, out_features=128, bias=True);     (2): ReLU();     (3): Linear(in_features=128, out_features=24, bias=True);   ); )",BTCUSDT,100,24,64,0.0005,50,15,0.0021191525123872897,0.002529990189765852,close
74.40044436240335,164.3864580900168,GRUStacked,"GRUStacked(;   (gru): GRU(1, 64, num_layers=2, batch_first=True);   (fc): Linear(in_features=64, out_features=24, bias=True); )",BTCUSDT,100,24,64,0.0005,50,15,0.002019029074659589,0.0024616696143096566,close
84.89396250222912,175.95195141484461,TransformerTimeSeries,"TransformerTimeSeries(;   (input_projection): Linear(in_features=1, out_features=64, bias=True);   (transformer_encoder): TransformerEncoder(;     (layers): ModuleList(;       (0-1): 2 x TransformerEncoderLayer(;         (self_attn): MultiheadAttention(;           (out_proj): NonDynamicallyQuantizab",BTCUSDT,100,24,64,0.0005,50,15,0.002206335315961181,0.002585451573412978,close
